models_paper/CNN_model.pth (torch, 43335 bytes, 20 tensors)

block1_conv.weight f4 [16, 1, 3]
00000000: 7646 573e 78c9 b53e 1772 1d3e cc47 18be
00000010: bf29 dcbc bdd7 03bf a728 ab3e b2b3 bf3d
00000020: f3ae c53e a0e4 0cbf 211e e3be c3bc 7dbd
00000030: 3fe5 963e 668f fbbc 97a9 a4be 3e7f f3be
00000040: 5be6 e43e 9d10 a23e 2ec7 afbe 75c7 413e
00000050: e94d b43e 4b47 f03d a89d 91be 07c2 b4bd
00000060: ebc6 e5be ccb5 9d3e 7175 cabe 67a3 053f
00000070: 55de cdbe 9628 033f 6522 eabe f3fe eabd
00000080: d62c ce3e 10aa e13e 1766 cf3e 89f0 80be
00000090: 6fda c9ba 338b 343e 42c3 afbe 099d dbbe
000000a0: 4fa7 c43e 764a 90be 5e97 7c3e 775b 3e3e
000000b0: e3e1 2cbe 65d5 07bf ba8a ba3e 72ba c3be
0.21022972 0.3550527 0.15375553 -0.14871138 -0.026875375 -0.51501065 0.33429453 0.09360446
0.38610038 -0.55036354 -0.44358924 -0.061947595 0.29471776 -0.030708026 -0.32160637 -0.47558016
0.44706997 0.316533 -0.3433165 0.18923743 0.3521569 0.11732348 -0.28440595 -0.0882607
-0.44878325 0.30802763 -0.39542726 0.5220246 -0.40208688 0.51233804 -0.45729366 -0.11474409
0.40268582 0.4407506 0.40507576 -0.25183514 -0.0015400181 0.17631225 -0.34328657 -0.42893246
0.38408896 -0.2818181 0.24667117 0.18589579 -0.16883044 -0.5305999 0.36433965 -0.38228184

block1_conv.bias f4 [16]
00000000: 77ce a5be 3ee9 f8bd d07c d7be 0a19 933e
00000010: 7c62 a13c 03bb 11be 3d27 d13e 5f74 b03e
00000020: 90ea ba3e 82f8 28be e48b 08bf bd8f a5be
00000030: 9211 dabe 94fe 0a3f 3d2a 513c 5c95 a9bc
-0.32384083 -0.121538624 -0.42087412 0.2873004 0.019700281 -0.14231496 0.4085025 0.34463784
0.36507082 -0.16501048 -0.53338456 -0.32336226 -0.4259153 0.54294705 0.012766418 -0.020701103

block1_bn.weight f4 [16]
00000000: 739b 7b3f 6991 7e3f 4066 813f b350 883f
00000010: f015 7e3f f096 803f 23b7 803f c6f1 7d3f
00000020: 0128 7c3f fb9b 7a3f fb10 7b3f c311 7f3f
00000030: 627e 7e3f b883 803f d6d7 823f e39a 803f
0.9828407 0.9944063 1.0109329 1.0649627 0.99252224 1.0046062 1.0055889 0.9919704
0.9849854 0.9789426 0.98072785 0.9963648 0.99411595 1.0040197 1.0222118 1.0047268

block1_bn.bias f4 [16]
00000000: 7aa8 5e3c 6956 1a3d adcf f53c dbb5 f0bd
00000010: 4839 7f3c c9ef 3d3d 6dc2 19bd fb75 473d
00000020: f733 edbc c300 a8bc 51b3 933c c432 98bd
00000030: 9c07 a63b c9d3 06bd 9755 88bd 4684 2bbd
0.013589973 0.037680063 0.030006254 -0.11753436 0.015577622 0.046371255 -0.037538934 0.0486965
-0.028955443 -0.020508176 0.01802984 -0.07431558 0.005066825 -0.032916818 -0.0665695 -0.041874193

block1_bn.running_mean f4 [16]
00000000: b91b f13d 7695 233e d582 f53d 36bd 103f
00000010: 70e7 fa3d 312a f03d 4030 063f 40fe d63e
00000020: 2260 023f e6fa 0c3e f3d2 043d 8222 f23d
00000030: 89f8 273c f3a6 253f 956f 053e 585d 3f3e
0.11772866 0.15974984 0.11987845 0.5653871 0.122511744 0.11726797 0.52417374 0.41990852
0.5092794 0.13767585 0.03242774 0.11822988 0.0102521265 0.6470787 0.13030846 0.18687952

block1_bn.running_var f4 [16]
00000000: 2a67 2f3e 4685 3e3e e755 4a3e abc5 0d3f
00000010: c24a 363d 0746 df3d 71c5 b93d ce0a 563d
00000020: 9d9d 193e 5202 233e 503b 303d aa5b 1d3e
00000030: 524e e43b 8228 a33d 6bd7 543d f393 063e
0.17129198 0.18605527 0.19759332 0.5537974 0.04450489 0.109020285 0.09070862 0.052256398
0.15001531 0.15918854 0.043025315 0.15366998 0.0069673443 0.079667106 0.05196325 0.13142376

block2_conv.weight f4 [32, 16, 3]
00000000: ab54 1cbd 8a23 063e 3f8a 0c3e d74b 893d
00000010: 994e abbd a681 f43d a2f7 95bd cabd c9bd
00000020: 46fb e4bd d8df ad3d a876 84bc f62b 37bd
00000030: f942 023e 1e8f 2b3e 4537 793d 88cb e23c
00000040: f36b d4bd d9b6 85bc ec5c d0bd 8400 bdbd
00000050: dba3 113d 72d4 433d 6ab2 03be d167 db3d
00000060: d057 98bd 343e 6bbc 663b 023c 493c 01bd
00000070: 485a 8eba 8219 3fbd ab53 c53d 2a32 11be
00000080: ce38 60bd 8a0c cc3c bb01 fb3d e216 59bb
00000090: aae1 e6bd 5437 483d e064 85bc 5e23 0d3d
000000a0: b100 a83c f53a 03be 3752 da3d 0625 1bbe
000000b0: 8d2e 52bd 6dba 543c 6ab9 9b3d 54e6 b2bd
000000c0: 6bf6 833d 0f50 06be 3609 0cbe a4fc 8c3d
000000d0: d3f0 a63d 979f 95bb 8150 ec3d 7aab 783c
000000e0: cb28 d33d 802f a0bd bdac 993c 6560 00be
000000f0: be7a d6bc 31ac 3bbc 1fb9 a43d ad2e 19be
00000100: 79d7 8d3d b458 52bd e093 b73d 3717 cdbd
00000110: f10d 1cbd 8b41 bd3d 7b56 c13d c5b8 87bd
00000120: 04ae f4bd 63be 093e 719a ac3d 1c22 f73b
00000130: 2647 773d ed89 f03d 36f7 e1bd 8ecd 243e
00000140: 62fa 7c3c c299 923d d3ab 07be ae55 043e
00000150: d41a 013e 201c 98bd 1886 9e3d 4725 3dbd
00000160: 0ab7 633d 89db de3b 5a30 223d bd14 e43d
00000170: decf e0bc a22e 22bd 431a 92bc 98f8 7bbd
00000180: 7550 1cbd b405 fc3d 96bd e4bd ec70 dfbc
00000190: 65c2 3d3c 0f31 60bd ec8d 893d b4ba babd
000001a0: 252b 263e 5e05 8dbd 269b fbbd 312d 713e
000001b0: b586 8d3d 212c 0ebd 9514 e9bc 0eab fa3c
000001c0: fba2 1dbc 663a 4d3d 9256 85bc 21ac 09be
000001d0: 56e4 4f3b ab73 8fbc 1fa0 27be fb98 533d
000001e0: 8cb7 743d 060d cebc 2193 e3bc 2bc6 efbb
000001f0: 30c5 10bd 653e 733a 9061 76bd cbcc ffbd
00000200: 2da5 9a3d 941b 873d bf9b 2e3d edc5 59bc
00000210: 655e 14be 1574 2fbd f43a a33d 2eca 1b3d
00000220: 905f 19bd ced2 dc3c 9e92 8fbd d5e0 1a3d
00000230: 82f9 613c 2c33 5bbd 3291 f8bd c90c da3c
00000240: cceb 3f3a 76c0 a7bc 9c2e ec3c 50ae cb3d
00000250: e184 dbbc b69a da3c 67b4 833d 2594 02bd
00000260: 1805 9a3d b15e 133e a550 a8bd 74ca 16bd
00000270: adc4 c8bb de2a b53d 7905 b3bd 71f8 363d
00000280: 6338 f63d 4436 1d3e a30d b2bd ab4f 4fbd
00000290: 3213 4538 5c59 3ebc 9bb3 033e b9ef c3bd
000002a0: 9091 853d 5f2d 08be fd09 b23c 5972 6f3d
000002b0: 5c6a 823d 1bf2 d23d d2a3 33bb e64d 173e
000002c0: 13fe 063d cbb3 493d 2974 24bd ef30 37bd
000002d0: 0d7e 8ebd 5187 8c3d b73d 993d ac6c 5d3d
000002e0: b775 2fbd e02a cfbb 243f 933b b3f6 a1bd
000002f0: ab57 1dbe a682 0bbd 393f b93d 6e5a 89bd
00000300: 72a9 b9bc 9b49 9a3d 8dd9 bb3b 74b1 7fbd
00000310: c3b4 253d c639 62bd e3f2 fcbc aa78 cdbd
00000320: f61c 6fbd e400 5b3d 36c3 bebc 0d06 4a3d
00000330: 9620 31be 217f c63c b5a1 9a3d c5d7 5e3c
00000340: 67ab 85bd f456 913d 48a7 c9bd 96b3 22be
00000350: 7b3b 763d 3603 92bc e80b 82bd 76ae 16be
00000360: 1b42 6dbd c20d 06be f853 c8bd eadc 0b3c
00000370: 8154 9cbd eaca a8bd 6b4c 2dbd 9050 c43d
00000380: 3d30 653d 5932 50bd bb1f 823d e4b0 a5bd
00000390: efee ab3b 35cb d43d b5e2 8b3d abe9 dabd
000003a0: 1dcf 2e3c 3b89 b8bd 8403 e8bd 9d92 e03d
000003b0: 2eba b2bd abc6 ca3b f335 c9bc 5c1e 8bbd
000003c0: c84f ed3d 570e 03be 3823 e73d 82a0 a83b
000003d0: da03 99bd 9745 5c3d 9972 bc3b c57e c4bd
000003e0: 76fd 27be 008f cbbb da8d 003e 6e82 d13d
000003f0: cac1 f23c b48a eb3d e8b1 8b3d 9119 c93d
-0.038166683 0.13099495 0.13724612 0.067039184 -0.08364601 0.11938791 -0.07322623 -0.098506525
-0.11180739 0.084899604 -0.016169861 -0.04471966 0.1272086 0.16753814 0.060843725 0.027684942
-0.10372152 -0.01632254 -0.101739734 -0.09228614 0.035556655 0.047810026 -0.12861028 0.10713161
-0.07438624 -0.014358092 0.007948732 -0.031551633 -0.0010860646 -0.046655186 0.09635099 -0.14179292
-0.054741673 0.024908323 0.122561894 -0.0033125211 -0.11273511 0.04888089 -0.016283453 0.034457557
0.020508142 -0.12815459 0.106602125 -0.15150842 -0.051313926 0.0129839005 0.07603724 -0.08735338
0.06443485 -0.13116477 -0.13675389 0.06884125 0.08151402 -0.0045661437 0.115387924 0.015177602
0.10310515 -0.0782156 0.018759126 -0.12536772 -0.026181575 -0.011454628 0.080431215 -0.14959212
0.06925864 -0.051354125 0.08963752 -0.100141935 -0.038099233 0.09241017 0.09440323 -0.06627039
-0.11947253 0.13451533 0.08427895 0.007541908 0.060370587 0.11745057 -0.1103348 0.16094038
0.015440555 0.07158233 -0.1324914 0.12923309 0.1260789 -0.074272394 0.0774042 -0.04617813
0.05559448 0.006801073 0.039596893 0.11136768 -0.027442869 -0.039595254 -0.017834788 -0.061516374
-0.038162667 0.12305775 -0.11168973 -0.027275525 0.011581992 -0.054734286 0.067165226 -0.09117642
0.16227396 -0.06885789 -0.122854516 0.23552395 0.06910459 -0.034710053 -0.028452197 0.030599143
-0.009621377 0.05010452 -0.016276632 -0.13444568 0.0031721792 -0.01751121 -0.16369675 0.051659565
0.059745356 -0.025152694 -0.027780117 -0.0073173246 -0.035344303 0.0009279012 -0.060151637 -0.12490233
0.07551036 0.06597057 0.042629 -0.013291818 -0.14489134 -0.042835314 0.07970229 0.03803461
-0.03744465 0.026955988 -0.07010387 0.037812073 0.013792397 -0.0535156 -0.12137069 0.026617425
0.0007321208 -0.020477515 0.028830819 0.09945357 -0.02679676 0.0266851 0.064308934 -0.031879563
0.07520503 0.1439159 -0.08218507 -0.036814168 -0.006126961 0.08846067 -0.08741278 0.044670526
0.12022474 0.15352732 -0.08694007 -0.050613087 4.6986337e-05 -0.011617985 0.12861483 -0.09567208
0.065219045 -0.13298558 0.021733278 0.05845866 0.06367943 0.10300084 -0.0027410877 0.1477581
0.032957148 0.04924373 -0.04014984 -0.0447244 -0.06957636 0.06861747 0.07482474 0.054058716
-0.04283687 -0.00632225 0.004493611 -0.07908382 -0.15365474 -0.034060143 0.09045262 -0.06706701
-0.022663806 0.075335704 0.005732721 -0.062425092 0.04045559 -0.05523088 -0.030877536 -0.100327805
-0.05837723 0.053467646 -0.023286443 0.049322177 -0.17297587 0.024230542 0.075503744 0.013601248
-0.06526833 0.07096663 -0.098463595 -0.15888819 0.06011532 -0.017823797 -0.06349927 -0.14714989
-0.05792437 -0.13091186 -0.09781641 0.008536557 -0.07633305 -0.08241828 -0.042309206 0.095856786
0.055954207 -0.050829265 0.06353708 -0.0809038 0.005246989 0.10390321 0.0683035 -0.106891
0.010669497 -0.0901055 -0.113287956 0.10965464 -0.08726917 0.006188234 -0.024561858 -0.067929
0.11587483 -0.12798439 0.11286014 0.005146087 -0.07471438 0.053777304 0.005750966 -0.09594492
-0.16405281 -0.0062121153 0.12554112 0.102299556 0.029633421 0.11501065 0.06821042 0.098193295

block2_conv.bias f4 [32]
00000000: d09e 903c 2b38 c93d 6de5 70bd 216b 3abc
00000010: 126b 82bd 912f e4bd bd59 913d affd e9bd
00000020: 2fbe 923c bc97 9a3c f8fa 183e 7d36 d6bd
00000030: 887a fc3d d107 063e 1e4d d2bd 60a3 753d
00000040: f31e ac3d c705 0d3d c95e 193d 7ad0 423d
00000050: b466 2e3e c70f 9bbb cd8b 0b3e 7322 ba3d
00000060: b6a1 61bd a468 a9bd 8ccc aabd 4068 6bbd
00000070: 4ff9 5dbd 1ea4 fb3c 8db5 a3bb 3ba1 f03c
0.017653853 0.09825166 -0.058812547 -0.011378081 -0.06368078 -0.11141885 0.07097194 -0.114253394
0.017912952 0.01887118 0.14939487 -0.104596116 0.123280585 0.13088919 -0.10268615 0.05997026
0.084043406 0.034429338 0.03744391 0.0475621 0.17031366 -0.0047321054 0.13627549 0.09088602
-0.05508586 -0.08271912 -0.083397955 -0.057472467 -0.054192837 0.030717906 -0.004996008 0.029373756

block2_bn.weight f4 [32]
00000000: c10b 823f a821 803f e049 7b3f 3bb9 813f
00000010: cbd0 7d3f d02b 773f 31d9 833f 9eb1 803f
00000020: 2d7f 7d3f 4d82 803f d8b7 753f b80d 7e3f
00000030: 4952 853f 47f3 763f 525f 843f 1701 793f
00000040: 5eee 833f 9845 843f 420e 753f 9f76 803f
00000050: 1543 7d3f da39 7d3f 6958 783f 64c6 813f
00000060: 6e15 853f ddfa 7b3f db68 813f 7645 7d3f
00000070: ba22 823f 83e4 843f 5a4c 823f dbe0 7d3f
1.0159837 1.0010271 0.981596 1.0134653 0.9914672 0.9655123 1.0300657 1.0054204
0.9902218 1.0039765 0.9598365 0.99239683 1.0415736 0.9646496 1.034159 0.9726729
1.0307119 1.0333738 0.9572488 1.00362 0.98930484 0.989164 0.97009903 1.0138669
1.0397165 0.9842966 1.0110124 0.98934114 1.0166848 1.0382236 1.0179551 0.9917123

block2_bn.bias f4 [32]
00000000: 04fb f73b b05a d53d 1939 f83d f26f 543d
00000010: 36d0 0c3d 39bf 63bd 58ce cfbc 77fb 1ebd
00000020: 75e6 94bd 0027 42bd c7f6 a8bb 907b bd3c
00000030: 007b a4bd 0af0 b53d 747f 85bc 6c2a 64bc
00000040: 05c7 67bb 4f09 603d 2585 843c 036d f6bc
00000050: dcf1 a9bd 0ffd c43d ab2d 623d ceec 72bd
00000060: aea4 6bbd c539 883d 3adf 283d 898c 3a3d
00000070: 3b65 5e3d c985 a1bd 73f0 823b cb6a 3dbb
0.007567765 0.10417688 0.121202655 0.051864572 0.034378253 -0.055602286 -0.025366947 -0.038814034
-0.07270519 -0.047400475 -0.0051563713 0.023130208 -0.08031273 0.088836744 -0.016296126 -0.01392613
-0.0035366428 0.054696377 0.01617677 -0.030081278 -0.08298084 0.096185796 0.055219334 -0.059307866
-0.057530098 0.06651644 0.04122851 0.04554418 0.05429576 -0.078868456 0.003995949 -0.0028902765

block2_bn.running_mean f4 [32]
00000000: 528f 3d3e 2831 563e 5a5f ab3d e266 453e
00000010: ed8c 693e 7f8a fd3d ec44 e83e a2f2 0f3e
00000020: 6eb2 113e a28b 1e3e 1d40 f43e d7b5 9d3e
00000030: 8173 953e 4715 673e 298c 523e 6915 ac3e
00000040: 488f 793e d94a 043e 5029 843e 7e3d 133e
00000050: 58db ce3e d5d6 a73e 0c03 993e b94b a83e
00000060: f413 453e acdd 1d3e 7d0e 2c3e 8f90 af3e
00000070: 93be 0a3e 7a6e 863e 0f2f b23e 99b7 393e
0.18511704 0.20917189 0.08367796 0.19277528 0.22807665 0.12379932 0.45365083 0.14057401
0.14228222 0.15482953 0.47705165 0.30802795 0.29189685 0.2256671 0.2056128 0.33610085
0.24371064 0.12919177 0.2581277 0.14378926 0.4040172 0.3278109 0.29885137 0.32870272
0.19245893 0.15416592 0.16802402 0.34289977 0.13549261 0.26256162 0.34801528 0.18136443

block2_bn.running_var f4 [32]
00000000: 30e0 cd3d cfa4 573e 31e7 e13c 22c6 963e
00000010: 687c 143d 0970 113e 1c02 9c3d f3d4 163e
00000020: 2f9c 233d 2e02 223e 47c2 753d ac4c 193d
00000030: b8e2 053e 9128 603e be15 cd3e 9dc0 203d
00000040: f774 b43e 62de d13d f587 933c 356c 793d
00000050: 0bb6 cb3d 086c ae3d 09f8 c93c 1542 c93e
00000060: 8cc3 d23e 1dd8 a13e 347e bc3e ae14 563f
00000070: 27e9 383e e010 2c3f 79f3 623f 315f d53d
0.10052526 0.21058963 0.027576061 0.29448038 0.036251456 0.14202894 0.0761759 0.14729671
0.03994387 0.15821144 0.05999973 0.037426636 0.13074768 0.21890475 0.4005565 0.03924619
0.35245487 0.10247494 0.018009165 0.06089421 0.09946831 0.08516699 0.024654405 0.3930823
0.41164815 0.31610194 0.36815035 0.83625305 0.1805769 0.6721325 0.8865276 0.10418547

block3_conv.weight f4 [64, 32, 3]
00000000: 2fbc 8abd 68e9 b73d 9b2f c0bd 8487 5bbc
00000010: c1ae 09bd b7ba 99bd 8612 6f3d 7474 08be
00000020: d417 7a3d ebaf 2b3d 4fff 463d 6a13 8a3d
00000030: d9c0 d0bb 12e2 833d c989 a0bd 6982 0c3c
00000040: fea0 5a3d d722 27bc 272c d63d 0574 253d
00000050: a4ab 91bd 9237 013c 8359 a23d 6e43 353c
00000060: 2c78 c8bd 5abf a23d 10d9 183c f0f2 a0bd
00000070: 7686 c33d ba7b 62bd 0e0b 9cbd a47f c03b
00000080: 3e38 ae3d d73b 26be 09aa 90bd 71b2 85bd
00000090: 677d f23c 7c40 293d aadc 9cbc f950 713d
000000a0: db39 ce3c b298 f2bd 4aef d8bd 7cd5 ddbd
000000b0: f6c7 3dbd 88e9 eabc f122 8dba 3dd5 143d
000000c0: 70c6 93bd 821f 333d ec74 f3bd 45ce 6a3d
000000d0: 3ddf 58bc dab4 a7bd c3e4 173d e03a 073d
000000e0: 4489 b23c 46ca bdbb a29a bd3c 1d1d 4b3d
000000f0: b898 03bd 9798 32bd 0495 763d 48d2 9ebc
00000100: d80f 583d 1545 93bc 5ed6 ca3c f070 95bd
00000110: 0ee1 263c 1007 c8bd 0874 6c3d b50b aebd
00000120: c0bc 083c d146 c1bc d75f cbbd d649 06be
00000130: bfad 063d f7f9 383d a3ab b73c 6367 f2bc
00000140: 7989 bbbd f6ea 46bd 038c ef3b fe3a 33bc
00000150: 5b92 763d 695d 2f3d 7c4c 1d3d 5ec5 eb3a
00000160: 66bb 883c 3ea5 1b3d 8dab 643d 0dbe 643b
00000170: 4f89 58bc 5666 de3c 6caa 9ebd 7364 f1bc
00000180: 17bc d9bc e8df fdbc c732 26bd 1f6e e7bd
00000190: af77 7e3d 2554 bcbd 3a6e 96bd cca2 423c
000001a0: a5f9 a4bd 81d8 40bd 5080 14bd 4ad3 3fbd
000001b0: 31b4 7fbd b383 edbb 5c64 fb3d ea94 36bd
000001c0: e29b 33bc fd7c 2e3d ee0a d7bd ea1c c9bd
000001d0: f819 973c be68 863d 9f63 ccbd be2f 983d
000001e0: 92e7 d53d afe4 b2bd 0756 893c eca9 2abd
000001f0: 4eed 93bd d775 1b3b f51e c8bd 9602 1abd
00000200: e4ed 4cbb 1d30 2c3b bc35 8d3d 014c c23c
00000210: 66f6 f0bd 1974 a6bd ca59 ca3d 04d1 14bc
00000220: e7cb 96bc 710a 2b3c 8f34 a63d 6f77 c93b
00000230: c070 073c dd2b b53d 887a e1bb 3a34 97bc
00000240: e166 1d3c 7c38 fcbd 6985 5a3d dda4 0fbd
00000250: 6afd cd3d 5c66 42bd 697f 343d b6dc 93bd
00000260: 87c6 55bd 3710 d73d cf18 e43c 264f 4b3d
00000270: 75c8 12bd b135 493d 54bb 993d 8f71 633d
00000280: 2822 1fbd 694a 9cbd deea 473d c82b e73c
00000290: 58db 8abd 31e8 9b3d 3897 9ebc 2bec 30be
000002a0: 2da3 9bbc 9f70 a8bd 3b31 203d 157c 7c3d
000002b0: 32ed 5d3d 422e 9b3d 4891 5abd 340b 69bd
000002c0: d07f e53c ee42 edba d8ad 953d 82ef bbbd
000002d0: 325c bb3c 423c 6dbd 8e62 49bd b0e6 eabd
000002e0: 450b 81bd 553e 973a 7a96 9f3d b0d2 56bd
000002f0: 0fdf 9f3d 7735 333d 394b 813d 5658 a2bc
00000300: 9ce2 9dbd 758e a5bc 7dd4 063d 7ca8 03be
00000310: 64d7 9a3b 21ea 8f3b f1e3 27bd 7b40 02bd
00000320: bdb4 6d3d 4f4b 893d e132 eebc c9a9 babd
00000330: b93a c63d 2aff 573d 7221 9c3d afc9 a53d
00000340: 53ed 84bd 399b 9d3d 84b4 3d3c f779 d43c
00000350: d91b 9fbd 8cc0 92bc 2feb 09be 32d2 a03c
00000360: f124 353d ad15 85bd 3dec 72bd f059 dcbd
00000370: 9a60 34bd 8d7a 9abd 37b7 903a 22e3 643d
00000380: 962e aebc 04c2 b23d 8a84 c4bd 688d 823d
00000390: 6e0b b1bd 60ca 5cbd 31c6 febd 13d0 9fbc
000003a0: 3372 12bd 6c79 10bd c1bd 033d 5a49 d23d
000003b0: e443 a8bc f3cd 7ebc e47c 31bd fecf 7cbc
000003c0: 5b8b 9abd 6287 5a3b 071a cfbc 5b19 253e
000003d0: 4888 353d cec4 a3bd afb2 0ebc 79b3 0fbd
000003e0: eb30 803d 69dd 743d 1f47 75bc ecb4 d4bd
000003f0: 8767 223d 7189 403b 6209 b9bd 43b1 023d
-0.067741744 0.089800656 -0.0938408 -0.013399009 -0.033613924 -0.07506316 0.058367275 -0.13325673
0.06105788 0.041915815 0.048583325 0.06741984 -0.0063706455 0.06439604 -0.078387804 0.008576014
0.05337619 -0.010201178 0.1045764 0.040393848 -0.07112816 0.007886784 0.07927229 0.01106344
-0.09788546 0.07946654 0.0093290955 -0.07858837 0.09547131 -0.055293776 -0.07619296 0.005874591
0.08506821 -0.16233765 -0.07063682 -0.065281756 0.029600812 0.041321263 -0.01914819 0.058915112
0.025174072 -0.118455306 -0.10592516 -0.108317345 -0.046333276 -0.02867581 -0.001076786 0.036336172
-0.07215583 0.04373122 -0.118875355 0.05732562 -0.013236818 -0.081887916 0.0370834 0.033015132
0.021793969 -0.005791935 0.023145024 0.04958831 -0.032128066 -0.043602552 0.060200706 -0.01938738
0.052749485 -0.017977277 0.024760421 -0.07296932 0.010185493 -0.09766972 0.057727844 -0.08498327
0.008345783 -0.023593338 -0.099303894 -0.13114104 0.03288054 0.04516026 0.02242071 -0.029590314
-0.0915708 -0.04856392 0.007310392 -0.010939358 0.06019817 0.042813692 0.03840302 0.0017987897
0.016690921 0.037999384 0.055827666 0.0034903318 -0.013216331 0.027148407 -0.07747349 -0.029466843
-0.026578946 -0.030990556 -0.04057577 -0.11300301 0.062125858 -0.09195737 -0.07345243 0.011879634
-0.080554284 -0.047081474 -0.03625518 -0.04683236 -0.062427703 -0.007248366 0.122750014 -0.04457561
-0.010962458 0.042599667 -0.105001315 -0.09819968 0.018445 0.06562947 -0.09979939 0.07430981
0.10444559 -0.08735024 0.016764654 -0.041665956 -0.07222997 0.002372136 -0.097715296 -0.037600122
-0.0031269724 0.0026273795 0.06895015 0.023717882 -0.11765747 -0.081276126 0.09880407 -0.009083036
-0.018407775 0.010439501 0.081154935 0.006148271 0.008266628 0.08846257 -0.006881062 -0.01845752
0.009607048 -0.12315461 0.053349886 -0.035069335 0.100581005 -0.0474609 0.04406682 -0.07219832
-0.052191284 0.105011396 0.02784386 0.04963603 -0.035835702 0.04912347 0.07506433 0.05552822
-0.038850933 -0.0763138 0.04880797 0.028219119 -0.06780118 0.07612646 -0.019359216 -0.17277591
-0.018998707 -0.08224606 0.03910945 0.06164177 0.054181285 0.07577182 -0.053361207 -0.05689545
0.028015047 -0.0018101612 0.07308549 -0.09176542 0.02287111 -0.057918794 -0.049166255 -0.114697814
-0.063009776 0.0011538962 0.07792373 -0.05244702 0.07806217 0.04375216 0.06313176 -0.019817512
-0.07709238 -0.02020953 0.03291749 -0.1285724 0.0047253836 0.004391924 -0.040988866 -0.031799775
0.058033694 0.06703817 -0.029076995 -0.09114415 0.09679169 0.052733578 0.07623567 0.08095109
-0.064905785 0.07695622 0.011578683 0.025937064 -0.077689834 -0.01791408 -0.13468622 0.019631479
0.044224683 -0.06498275 -0.059307326 -0.10759342 -0.04403744 -0.07542906 0.001104093 0.055880673
-0.021262448 0.08728412 -0.09595592 0.06374627 -0.08644758 -0.053903937 -0.12440146 -0.019508397
-0.03575344 -0.035272047 0.032163385 0.10267897 -0.020540185 -0.015552032 -0.043331996 -0.015430449
-0.07546111 0.0033344855 -0.025280965 0.16122954 0.04431942 -0.07996522 -0.008709594 -0.035083268
0.0625933 0.059781466 -0.01497057 -0.103860706 0.039649513 0.0029378796 -0.09034993 0.03190733

block3_conv.bias f4 [64]
00000000: 69ad aebd 8c2f 28bd f266 f2ba a766 f53b
00000010: 9c3c 083c 46b6 813d 628e a1bd ab59 9ebd
00000020: 494f 83ba 7a9d 70bd 62dc 80bd cd38 f23c
00000030: a2b3 1dbd 5595 bbbc 59d0 e0bd b6f3 a6bd
00000040: 5b47 8dbd 9818 2cbd 4b61 773d d784 313d
00000050: 6b1d c23c edf2 a0bd ff37 883c f096 48bd
00000060: f547 7e3d 184b 853d b9e2 c0bd 6345 9c3d
00000070: a589 70bc 7611 7ebd 7135 73bc 20db 5abd
00000080: 67d2 7a3d 6381 7d3d da04 cdbd 7a1a a13d
00000090: a2c8 8e3d 4849 80bd c0bf 2f3c 91cc 6ebd
000000a0: fb89 cabd eb90 4e3d 3e54 98bd 1e08 27bd
000000b0: 41e7 9d3d 88a4 893d 31bd 93bd e3c8 813c
000000c0: ac48 043d c45e 27bd b7ae cc3d 6a68 ec3c
000000d0: 79e3 68bd 2ae8 bcbd c41d 71bd 867c 413d
000000e0: f692 373c d55e 99bd 4083 dbbc 7e14 54be
000000f0: f92b 413c 4e2f 78bd 3e2a 96bd 922a c8bd
-0.08529169 -0.04106097 -0.0018493815 0.0074890438 0.008315232 0.06333594 -0.078884855 -0.077319466
-0.0010018136 -0.05874393 -0.06292035 0.0295681 -0.03850139 -0.022898355 -0.10977239 -0.08151953
-0.068983756 -0.042015642 0.06039552 0.043339577 0.023695668 -0.078588344 0.016628264 -0.04897207
0.062080342 0.065084636 -0.09418244 0.07630422 -0.0146812545 -0.06202837 -0.014844284 -0.05343163
0.06123581 0.06189097 -0.10010691 0.07866378 0.069718614 -0.06263977 0.010726869 -0.05830056
-0.09889599 0.050431173 -0.07437943 -0.040779226 0.07710124 0.06720835 -0.0721382 0.01584286
0.032295868 -0.04086186 0.09994262 0.028858382 -0.05685756 -0.09223969 -0.058866277 0.047237895
0.011204472 -0.07488791 -0.026795983 -0.20710942 0.011790269 -0.06059199 -0.07332276 -0.09773745

block3_bn.weight f4 [64]
00000000: 64cf bd3f 42eb aa3f 29b6 b63f 00d4 ba3f
00000010: a370 c33f 6b7d a23f 941d b93f 2c22 ad3f
00000020: ded7 a63f a23d b03f 1ede b93f 19d7 c33f
00000030: dfb4 a83f 92ca b53f 2ea4 b43f d937 bc3f
00000040: 15b0 a33f fa10 bc3f b6ba 9a3f ab7e a33f
00000050: 6317 b13f 7e96 b53f 86a6 b43f 60db 973f
00000060: 6b19 b33f 3e18 b33f 0838 b33f 0071 b83f
00000070: f5c0 963f bcab a43f 06ec ab3f e1d8 ab3f
00000080: aca4 a23f 1ae4 b93f 77cb b73f c239 9f3f
00000090: 137d 993f 5a99 a43f ef93 b13f 1cfb a53f
000000a0: e7a7 a13f 2817 b33f 2712 be3f 220e bf3f
000000b0: fc71 b53f 1e93 9b3f 6d01 a83f d1a4 aa3f
000000c0: 58a9 a33f 3379 b03f 362f a13f 48f0 a13f
000000d0: 4d1d a43f a679 bc3f 7ba2 af3f 79a7 b13f
000000e0: 23e2 a83f 686e ae3f 0560 a93f 400d ae3f
000000f0: 6f11 9b3f 4f1f ae3f cd10 b83f c069 9e3f
1.4828916 1.3353045 1.4274341 1.4595947 1.5268749 1.2694525 1.4462152 1.3526053
1.3034627 1.3768809 1.452091 1.5300018 1.3180197 1.4202445 1.4112604 1.4704543
1.2788111 1.4692681 1.208823 1.2773031 1.3835262 1.4186552 1.4113319 1.1863823
1.3992132 1.3991773 1.4001474 1.4409485 1.1777636 1.2864909 1.3431404 1.3425561
1.2706504 1.4522736 1.4358968 1.2439501 1.1991295 1.2859299 1.3873271 1.2967257
1.2629365 1.3991442 1.484929 1.4926188 1.417541 1.2154272 1.3125435 1.3331548
1.2786055 1.3786987 1.2592533 1.2651453 1.2821442 1.4724624 1.372146 1.3879234
1.3194011 1.3627443 1.3232428 1.3597794 1.2114695 1.3603305 1.4380127 1.2376022

block3_bn.bias f4 [64]
00000000: 9cdb cabc 52fe 673d a898 99bd 89a5 98bb
00000010: b1b4 32bb e066 a03c ee2c b73c 263f 863d
00000020: ee35 ac3d 6989 2a3d f1e7 753d c66f 6bbb
00000030: 5b38 a8bd d202 92bd be3c 523c e263 c33c
00000040: 5292 b23c b316 6a3d 4226 2bbd d176 693d
00000050: fc0f 0ebd 96fa 21bd 63ad 21bd 38a2 c93c
00000060: fae1 b8bb 61be 083c 8b82 553d 7bc6 9fbd
00000070: 03bc d63c 34c6 8abd f69a 0c3d a260 4e3d
00000080: 8fdc e33b 463e 3c3d 0568 febb 07cd b63c
00000090: 81e5 64bc 0dee 993d 71f9 893d 1d88 fbbc
000000a0: cb49 253d 9dc1 073d ce23 9f3d c983 7fbb
000000b0: 42a3 49bd b557 81bd 168f 8a3d 7f16 3c3d
000000c0: 9f6e e83c 36b7 c8bc 1091 983d 6f9d 5fbd
000000d0: 1000 c43d 5e8e 043c 9ec0 fa3d 2a4b 683b
000000e0: 0de9 193b cbd2 49bd ecf3 b93d 1117 c33d
000000f0: 5863 093c 18b7 9d3c 1f8b 07bd 4081 bfbb
-0.024762921 0.056639023 -0.0749982 -0.004658405 -0.0027268345 0.019580305 0.022360291 0.06555013
0.08408724 0.04163495 0.06003565 -0.0035924776 -0.08213874 -0.07129444 0.012831865 0.023851339
0.021798287 0.057150554 -0.041784532 0.056998078 -0.034683213 -0.039545618 -0.039471995 0.024613485
-0.005642173 0.008346171 0.05212645 -0.07801529 0.026212698 -0.067760855 0.03432747 0.050385125
0.006953783 0.045957826 -0.007763865 0.022314562 -0.013970734 0.07516108 0.0673703 -0.030704552
0.040353578 0.03314363 0.07770501 -0.0038988462 -0.04922796 -0.06315557 0.06765573 0.04591989
0.02837306 -0.024501424 0.074495435 -0.0545935 0.095703244 0.008090584 0.1224377 0.0035445192
0.0023484856 -0.049273293 0.090797275 0.09525884 0.008385502 0.019252345 -0.03309166 -0.005844265

block3_bn.running_mean f4 [64]
00000000: 2799 5d3f 19f2 563f 14e1 613f 28b7 1f3f
00000010: f158 693f ff34 d53f 9dce 773f fd61 853f
00000020: 3a45 323f 03e6 513f b78f 763f ab71 7e3f
00000030: 84d6 453f 1bc7 823f 896a 1f3f f4c8 6d3f
00000040: 0eca 963f b93b 933f d485 473f b00d b93f
00000050: 5115 1a3f af96 173f 7e1f 453f 9f5f c23f
00000060: f4c9 573f 3403 6b3f 7478 e03e 6657 2d3f
00000070: 6026 b93f 5b22 1d3f 3e3f 363f 3e88 7c3f
00000080: c109 a73f 90ac 933f 0809 5d3f e8bf 3a3f
00000090: ab12 803f d4c8 a03f 4888 3f3f 8eea 613f
000000a0: 451a a63f 702c 853f fe8b 463f 4ecb 433f
000000b0: f57c 123f 4455 fa3f 9410 a33f b5a1 5b3f
000000c0: 2e87 583f e8c6 023f cc4c 923f 845a 843f
000000d0: 4551 193f cd6f 263f 475c 023f 2315 373f
000000e0: 399c 633f 4f1c 5a3f 0eee 3c3f fa37 e93e
000000f0: ede1 473f f69f ad3f 8cc1 123f 14ff 1c3f
0.86561817 0.8396316 0.88234067 0.6238885 0.9115134 1.6656798 0.9679964 1.0420529
0.6963688 0.81991595 0.9631304 0.99392194 0.7728045 1.0217012 0.62271935 0.92884755
1.1780412 1.1502601 0.7793858 1.4457302 0.60188776 0.592143 0.7700118 1.5185431
0.8429253 0.9180176 0.43841898 0.67711484 1.4464836 0.6138055 0.7119025 0.9864539
1.3049852 1.1537037 0.86341906 0.72949076 1.0005697 1.2561288 0.74817324 0.8824853
1.2976767 1.0404186 0.7755736 0.76482093 0.5722192 1.9557271 1.2739434 0.8579362
0.8458127 0.51084757 1.1429687 1.0340123 0.5988963 0.65014344 0.50922054 0.7151663
0.8891025 0.85199445 0.7380074 0.4555052 0.7807911 1.3564441 0.5732658 0.6132672

block3_bn.running_var f4 [64]
00000000: 5948 5f3d 2e05 3b3d a31d 093b b73c b13b
00000010: 6430 003d 52e3 5d3e 2973 603d 9bce 7e3d
00000020: b323 693c cf95 ec3c 75d1 f23d 4c06 993c
00000030: d21a fb3c 27b7 a93d a601 1c3d 9537 343d
00000040: 2502 ae3d 4726 183e a791 e13c 511d 1e3e
00000050: 1173 8d3c dfe2 053d 4a91 6b3b c0ed 163e
00000060: c28a 173d cb7b 403c 88ab 583d 846f fa3c
00000070: 1914 2140 a674 2f3d f148 0b3c 3e3b a13d
00000080: ae60 5f3e 340c e93c f7d4 c93d 9ac3 ed3c
00000090: fa52 623c b5c4 963c 0ed5 963c 50da 6e3d
000000a0: db81 a03e 782d 153c 0027 1a3c da34 813c
000000b0: 549f 793b abc3 1440 9d70 ae3e d2f5 a23d
000000c0: 0416 d13c e408 b03c 2139 843d 1ecb 733d
000000d0: be66 1c3e e584 723b f47b ca3b 6a35 5d3c
000000e0: 5238 8f3d 50e1 dc3c 3799 033d 8d6a 563d
000000f0: 6c4b 493d 3262 ae3e 326c de3b b6f3 6e3d
0.054512355 0.045659237 0.0020922206 0.005408849 0.03129615 0.21668747 0.054797325 0.062208753
0.014229703 0.028880028 0.11856357 0.01867976 0.030652437 0.08286887 0.03808751 0.04399832
0.08496503 0.14858352 0.027535273 0.15440871 0.017266782 0.032687064 0.0035944753 0.14739132
0.036997564 0.011748265 0.05289796 0.030570753 2.5168517 0.042835854 0.008501277 0.07872628
0.21814224 0.028448202 0.09855073 0.029023934 0.0138137285 0.018404344 0.01841214 0.058313668
0.31349072 0.009105079 0.009408712 0.015772272 0.0038089352 2.3244426 0.34070292 0.07957043
0.025523193 0.021488614 0.06456209 0.05951988 0.15273568 0.003700548 0.006179327 0.013501504
0.06993164 0.026962906 0.03212854 0.05234771 0.049144194 0.34059292 0.0067878 0.05833789

fc.weight f4 [10, 64]
00000000: 0b59 7a3e 445c 92be 75b6 6ebe 8b3a c33d
00000010: 8ffa 993e a3fe 92bd 0d90 5c3e d6aa 543e
00000020: 2dde b8bd 7dee bbbe c777 593e 24e5 683e
00000030: 96bc 623d 6b58 82bd 2029 eabd 2258 223e
00000040: d785 283c df03 843d 6a54 2fbe 2fee 14be
00000050: 00f4 4dbe f84a 82be 382c 1abc 7694 96bd
00000060: 27f2 8d3e 5318 b93d f5d0 81be 5423 843e
00000070: 9902 f2bd 9217 99bd e2e5 afbd 9b4b 54be
00000080: 9f97 61bd 5321 afbd 6b23 e7bd fcda 33bd
00000090: 3f1a 30bd cf29 b13d 2a28 93be 5e9e 8b3e
000000a0: 903a 9bbd 5e50 1c3e e46c 733e e1a8 803e
000000b0: f478 073e 8b67 89bd e851 083d 0094 8a3d
000000c0: 9932 a4bd 11ba a5bd 919f 1cbe 23e5 8e3d
000000d0: 2df9 07be b95f f73d d671 4abe 484e c83d
000000e0: af70 59be a13c 13be 2646 b6bd 27d9 69be
000000f0: 9b32 243d 5dfd 0c3d 0cb0 023e f85b a23d
00000100: 63f2 ee3d 0085 a43e 786b 62be 2a8a 12bd
00000110: 2d88 823e 6716 f03d 255d 243e 21df 983e
00000120: 8046 883e a3f5 823e b611 6c3e c32e 3f3e
00000130: 4997 58be adc8 63be ee94 17bc 8cf3 723e
00000140: 304f c7bd 9a22 df3d 5ed1 deba 0e8a 063d
00000150: 9edf e43c 82d1 2fbe 0f6c 7cbe 9a5a 903d
00000160: e61c 533e ddf5 f2bc 14a5 a8bc 14b0 22bd
00000170: 3319 fbbd c7f5 82bd c526 633e 12e6 1c3e
00000180: 5e57 06be 925e bd3e 5167 92be 8214 253e
00000190: b096 25be cfe9 5f3e 20b3 8e3e 973c 4fbe
000001a0: 5377 32bc 26b1 803e a2f6 833e 1c8b 8f3e
000001b0: 034a 043e 5c88 2cbe 20e4 76bd 5508 92bc
000001c0: 624e 8a3e 0c0d 11be 9971 183e e45d 56be
000001d0: 0cd3 813e 699f 193e 4534 0d3e fd03 803d
000001e0: c83a 3a3e 946d b9bd 8648 383e 99a9 ac3e
000001f0: 332e 8a3d f6ae e5bc ccd6 32bd 276d ae3d
00000200: ab37 83be a6e2 a7be 5035 b73c e796 a63d
00000210: 08e9 cdbd d080 843e 7d5b 83be c9b0 7abe
00000220: d757 93be ec46 7fbe 8824 b0be 8486 f4bd
00000230: ae8f 4b3e c041 23be d58f c53d 497b 35be
00000240: 7f46 c03c abb9 51be d19a 79be 8de0 ea3d
00000250: c16e a2bd 582a 5b3d 1f81 873d c62f 7dbd
00000260: 546d 7f3e b6cd d4bd ce75 853e 0acb 7f3e
00000270: 8bfe 8a3b d7d4 94be 8b84 bbbd a295 813e
00000280: 1e4e 0bbe b220 d7be ed2a 2dbd 32a1 7b3e
00000290: 5478 37bd 8fff 8dbd 8525 bd3d 9483 2e3e
000002a0: 7a06 74be 5333 223d cdb9 6fbc 9f71 80bd
000002b0: 5d0a 9cbe e470 aabd e9a3 183e 5185 54be
000002c0: 3f16 e53d 732b a03e c568 98be bb21 1fbe
000002d0: e8ed 683e ae75 d53c beac 823d c316 443d
000002e0: 0811 ad3d 4a1d 97be 5d36 16bd ca63 143e
000002f0: f861 81be e713 4fbe 5503 d73e 42c8 0fbe
00000300: 1b6d 1bbe e79f 6a3e ca8a 683c 7660 cc3b
00000310: ce55 9abd 5eb1 163e b240 72be 1a74 30bc
00000320: 1eaa 78be 38b1 5a3e 785f d73c 0d2a 16be
00000330: 7d64 9f3a 843b 10be 52c0 243e abbc 01be
00000340: c0cd ee3a ee34 14be f872 7cbc 7ea9 c53d
00000350: 55b1 883e bbb6 6ebe 6fd6 92bd 23c6 333e
00000360: 7c34 14bc 0d24 a5bd c8e0 a4be 66a0 3cbe
00000370: c5fa 993d bdd4 eabd 0f0d 533e 7a35 fd3d
00000380: 0741 f8bd 6960 d13c 188d 33be 62a4 43be
00000390: 39dd 223e 2e2e adbd 4ba9 8bbe 80c8 39bd
000003a0: cca3 5c3e 7e86 81be 64da 933d ac18 b5bd
000003b0: a68c 00be 0d82 4a3d 8edc 323d 7669 12be
000003c0: 830b 8bbe 1f28 b7bd c0c4 e13d 5b96 f03c
000003d0: 9dfc 2f3e 5176 a5bd 6c87 223d 89bd 933e
000003e0: 6265 4b3e 94e7 99be 8086 a5bd 36f5 0f3d
000003f0: e278 5d3e 49ae a73d 646b 57be 76ba 883e
0.2444803 -0.28586018 -0.2331179 0.095326506 0.30073974 -0.07177474 0.21539326 0.20768294
-0.09026752 -0.3670539 0.21237098 0.2274366 0.05535563 -0.06364521 -0.11433625 0.15853932
0.010285816 0.06446051 -0.17122045 -0.14543985 -0.2011261 -0.25447822 -0.009409957 -0.073525354
0.2772381 0.090378426 -0.25354734 0.25808203 -0.11816902 -0.07475199 -0.085887685 -0.20731966
-0.055076238 -0.08551278 -0.11286052 -0.04391001 -0.04299378 0.086505525 -0.2874158 0.27269262
-0.07579529 0.15265033 0.23772007 0.25128844 0.13229734 -0.067092024 0.033281237 0.0676651
-0.08017463 -0.0809213 -0.15295245 0.06977298 -0.13278647 0.120788045 -0.19769987 0.09780556
-0.21234392 -0.14378597 -0.089000985 -0.22836743 0.040087324 0.034421314 0.12762469 0.07927698
0.11667325 0.3213272 -0.22111309 -0.035776295 0.2549452 0.11723023 0.16051157 0.29857734
0.26616287 0.2557803 0.23053631 0.18670182 -0.2115146 -0.2224452 -0.009251816 0.23725718
-0.09731901 0.108952716 -0.0016999652 0.032846503 0.02793866 -0.17169765 -0.24650596 0.07048531
0.20616493 -0.029658252 -0.020586528 -0.039718702 -0.12260666 -0.063945346 0.22182758 0.1532214
-0.13119265 0.36986214 -0.2859445 0.16121104 -0.16170764 0.21866535 0.27871037 -0.20237957
-0.010892707 0.25135154 0.25774103 0.2803582 0.12918858 -0.16848892 -0.06027615 -0.017826239
0.27012926 -0.14165133 0.14887084 -0.20934254 0.25356328 0.15002216 0.1378947 0.06250761
0.18186486 -0.090541035 0.17996415 0.33723143 0.06747093 -0.02803753 -0.043661878 0.08516913
-0.2562841 -0.32790107 0.022364289 0.08134251 -0.10054213 0.25879526 -0.25655738 -0.244815
-0.28777954 -0.24929398 -0.3440287 -0.11939719 0.19879028 -0.1594305 0.096465744 -0.17722811
0.023471115 -0.20480983 -0.24375464 0.11468611 -0.07931281 0.05350718 0.06616425 -0.06181314
0.24944049 -0.10390799 0.2606644 0.24979797 0.0042417697 -0.29068634 -0.0915614 0.25309473
-0.13604018 -0.42017132 -0.042277265 0.2457321 -0.04479249 -0.069335096 0.09235672 0.1704238
-0.23830596 0.039599728 -0.014631701 -0.062716715 -0.30476657 -0.083223134 0.14906277 -0.20753981
0.11185884 0.3128315 -0.29767433 -0.15540211 0.22747004 0.02605709 0.06380604 0.04787327
0.08450514 -0.29514533 -0.03667294 0.14491192 -0.25270057 -0.20222436 0.4199473 -0.14041236
-0.15178339 0.2291256 0.014193246 0.006237085 -0.07535897 0.14716098 -0.23657492 -0.010769868
-0.24283645 0.21356666 0.02629064 -0.14664479 0.0012160685 -0.14085203 0.1608899 -0.12669627
0.0018219277 -0.14473316 -0.01540827 0.09651469 0.26697794 -0.23311894 -0.07169806 0.17556052
-0.009045716 -0.08063517 -0.32202744 -0.18420562 0.075185336 -0.11466358 0.2061045 0.123637155
-0.12121778 0.025558667 -0.17534292 -0.19105676 0.15904702 -0.08456074 -0.27277598 -0.045357227
0.21546859 -0.25297922 0.07219389 -0.088425964 -0.12553653 0.049440432 0.04366737 -0.14298043
-0.2715722 -0.08943199 0.11023855 0.02936857 0.17186208 -0.08079208 0.03967993 0.2885554
0.19862893 -0.30059493 -0.080822945 0.03514596 0.21628144 0.08187539 -0.2103706 0.26704758

fc.bias f4 [10]
00000000: e907 e23c 5ba0 053d 4fbb d2bd 037a ab3d
00000010: 2ad9 16be 3182 2bbe 9de5 4bbd bb15 16be
00000020: 7b3a b9bb bc5f 323b
0.027591662 0.03262363 -0.102896325 0.08372881 -0.14731279 -0.16748883 -0.049779523 -0.14656727
-0.0056527234 0.0027217707
