models_paper/DeepCNN_model.pth (torch, 150426 bytes, 32 tensors)

block1_conv1.weight f4 [16, 1, 3]
0	0x3ea0d707	0.31414053
1	0xbdbccebf	-0.09219121
2	0x3ee5359d	0.44767466
3	0xbe38fa5f	-0.18064259
4	0xbe73ac94	-0.23796302
5	0xbf0a732f	-0.54082006
6	0xbf10245c	-0.5630548
7	0xbea8054e	-0.32816547
8	0x3e046226	0.12928066
9	0xbef460a5	-0.47729984
10	0x3d7c3fd9	0.061584327
11	0x3ed5a376	0.41726273
12	0x3f077b14	0.5292218
13	0x3ed55924	0.4166957
14	0xb98363c2	-0.00025060592
15	0x3f06ac73	0.52606887
16	0x3eda39bf	0.42622182
17	0xbeada5d3	-0.33915576
18	0xbeaa03ea	-0.3320611
19	0x3ebce5e8	0.36894155
20	0xbd1a2ebb	-0.037642222
21	0xbebe54e2	-0.37174135
22	0xbf05bd45	-0.5224193
23	0xbec6129c	-0.38686073
24	0xbcbcceae	-0.023047771
25	0x3e19bced	0.15013476
26	0x3e4789fe	0.19486234
27	0xbd074162	-0.03302134
28	0x3ec3bd69	0.38230446
29	0x3e631bcc	0.22178572
30	0x3d920657	0.071301155
31	0x3ea8a679	0.3293951
32	0x3e5d9aab	0.21641032
33	0x3eba95ef	0.36442515
34	0xbebf1238	-0.37318587
35	0x3ec00dd9	0.37510565
36	0x3f181f67	0.59422916
37	0x3e8dbd38	0.27683425
38	0x3e6aab77	0.22916971
39	0xbece0954	-0.40241492
40	0xbe26c449	-0.16285814
41	0xbe8ab9a7	-0.27094766
42	0xbda46612	-0.08027281
43	0x3e96563f	0.29362676
44	0xbedeed63	-0.43540487
45	0x3db37135	0.08761827
46	0x3efafea3	0.49022397
47	0x3ee05870	0.43817472

block1_conv1.bias f4 [16]
0	0x3d371c3f	0.044704672
1	0x3cee2399	0.029069709
2	0x3f05aa19	0.52212673
3	0xbe0b0eff	-0.1357994
4	0x3d47eac1	0.048807863
5	0xbe575e34	-0.2103203
6	0xbf0fc168	-0.5615449
7	0x3e65f9e4	0.22458607
8	0x3e6485a9	0.22316612
9	0x3e48b648	0.19600785
10	0xbd954f08	-0.07290465
11	0x3f07f327	0.53105396
12	0x3ef46b01	0.47737888
13	0xbe61e6bc	-0.22060674
14	0x3e00b7fc	0.12570184
15	0xbeb72d44	-0.35776722

block1_conv2.weight f4 [16, 16, 3]
0	0x3c0ec92b	0.008714954
1	0xbe1302b4	-0.143565
2	0xbdf337bd	-0.118758656
3	0xbe0c679f	-0.13711403
4	0xbdcd4294	-0.100224644
5	0x3dcc45bd	0.09974239
6	0x3df2dca1	0.11858488
7	0x3dd6a568	0.104807675
8	0x3d2c17e5	0.042014975
9	0xbd9d514f	-0.07681524
10	0xbdb4c0c5	-0.0882583
11	0xbcfcb246	-0.030846726
12	0xbcfc8bed	-0.03082844
13	0x3d9c44e5	0.07630328
14	0x3dd0fe45	0.10204748
15	0x3c340a31	0.010988758
16	0xbd84509c	-0.064606875
17	0xbdade9fb	-0.08491894
18	0xbdbca618	-0.09211367
19	0xbd458237	-0.048219886
20	0xbdb59ebe	-0.08868168
21	0xbd262552	-0.040562935
22	0xbdfa6ce8	-0.122278035
23	0x3dbc8266	0.09204559
24	0xbd1060e0	-0.035248637
25	0x3d2e53c3	0.04256035
26	0x3d750436	0.05981847
27	0xbca43bc2	-0.020048026
28	0xbe0b92a1	-0.13630153
29	0xbd7a87dd	-0.061164726
30	0x3d8b8ced	0.06813989
31	0xbdc15748	-0.09440476
32	0x3e1184b6	0.14210781
33	0x3ccb630c	0.024827503
34	0xbdb60b5e	-0.08888887
35	0xbd0dae9c	-0.03459035
36	0xbe170f9b	-0.14752047
37	0x3d9608d4	0.073259026
38	0x3d2db2f7	0.042407002
39	0xbcfc877c	-0.030826323
40	0x3e069b51	0.13145186
41	0xbdf5e5a8	-0.12006694
42	0x3cf06d64	0.029349037
43	0xbddc5f52	-0.107603684
44	0x3d29e9bf	0.041482683
45	0x3d81a171	0.06329621
46	0x3dfd349a	0.123635486
47	0xbdf7b86c	-0.120957226
48	0x3ce64834	0.028110601
49	0x3dcfc56d	0.10145078
50	0x3de14f4a	0.11001451
51	0x3e062cd2	0.13103035
52	0xbe0256b1	-0.12728383
53	0xbd19900f	-0.0374909
54	0xbdc6441d	-0.0968096
55	0x3c6062d6	0.013695439
56	0xbd94363a	-0.072369054
57	0xbdecf8a5	-0.11570863
58	0xbe101162	-0.14069131
59	0xbd8052ac	-0.062657684
60	0x3ccc8766	0.024966907
61	0x3d960dfd	0.07326887
62	0xbce889a8	-0.028385952
63	0x3dbf6e5f	0.093472235
64	0x3d8ccf50	0.06875479
65	0x3dc1d690	0.09464753
66	0xbdbb3756	-0.09141414
67	0x3d852f69	0.065031834
68	0xbe12c671	-0.14333512
69	0xbcb5f01c	-0.02220922
70	0x3e1fddea	0.15611997
71	0xbd9a6174	-0.07538119
72	0x3d39b9bb	0.045343142
73	0x3c4e557a	0.012593621
74	0x3e04f33b	0.1298341
75	0x3dc5d500	0.09659767
76	0x3dff57be	0.12467907
77	0xbc5c253c	-0.013436612
78	0x3dbeda18	0.09318942
79	0x3d543884	0.05181171
80	0xbc94dfc5	-0.018173108
81	0xbd81133f	-0.06302499
82	0xbd46799e	-0.048455827
83	0xbdebbb8d	-0.11510382
84	0x3db5a294	0.088689
85	0x3de0283e	0.109451756
86	0x3d129d72	0.035794683
87	0x3d2278da	0.039666034
88	0x3ce437be	0.027858611
89	0x3ca4a6fa	0.020099152
90	0x3d839d66	0.06426506
91	0xbcba4087	-0.022735847
92	0x3d3e409b	0.04644833
93	0xbe08c81b	-0.13357584
94	0x3c547a77	0.012968651
95	0xbd88becd	-0.06677017
96	0x3dac2291	0.084050305
97	0xbd07bfd7	-0.033141937
98	0xbdc7a1fd	-0.09747694
99	0xbdb72c88	-0.089440405
100	0xbc54bbcf	-0.01298423
101	0x3de46202	0.11151506
102	0xbe0b104c	-0.13580436
103	0xbdfbdb98	-0.122977436
104	0x3dcf8970	0.10133636
105	0xbdb8bb1a	-0.09020062
106	0x3d8e6535	0.069528975
107	0x3da3e872	0.0800332
108	0x3cfe4ba1	0.031041922
109	0xbd96bd46	-0.0736032
110	0x3d8d816a	0.069094494
111	0x3d73551c	0.05940734
112	0xbcd6bd48	-0.026213303
113	0x3d1ed5d9	0.03877816
114	0xbd3ec0aa	-0.046570458
115	0xbdbdaaf4	-0.09261122
116	0xbd9b821a	-0.07593174
117	0x3dd10e39	0.10207791
118	0x3deadb72	0.11467637
119	0x3c855ddf	0.016280113
120	0x3dc11ba3	0.094290994
121	0x3dc5f2a6	0.09665422
122	0x3e0e4612	0.13893917
123	0x3dc5f854	0.096665055
124	0xbc3ed4f9	-0.011647456
125	0x3df3379f	0.11875843
126	0xbde2099a	-0.110369876
127	0x3dbeff0d	0.09325991
128	0x3c81725f	0.015801607
129	0xbe11d219	-0.14240302
130	0x3dfd8df3	0.1238059
131	0x3d5ab173	0.053391885
132	0xbdc85c58	-0.09783238
133	0xbb72c59f	-0.003704406
134	0xbd969457	-0.07352512
135	0xbd326165	-0.043549914
136	0x3d5336bf	0.05156588
137	0xbad26620	-0.0016052164
138	0x3e30decb	0.17272489
139	0xbdad6673	-0.08466806
140	0x3e1bb63a	0.15206233
141	0x3d3b40a8	0.045715958
142	0xbe206e03	-0.15666966
143	0xbde49d53	-0.1116282
144	0xbe10ca86	-0.14139757
145	0xbd51697b	-0.051125985
146	0xbe12e605	-0.14345558
147	0x3d5ce83d	0.053932417
148	0xbe0fa9ea	-0.14029661
149	0xbd4c05ac	-0.049810097
150	0x3c3d9f4c	0.011573624
151	0xbc2877bb	-0.010282452
152	0xbd2df0e3	-0.042466056
153	0xbd429a8b	-0.047510665
154	0xbd64f6f6	-0.055899583
155	0xbce72ccb	-0.028219601
156	0xbb38e0d2	-0.0028210175
157	0xbdf6e3d9	-0.12055177
158	0xbddc8224	-0.1076701
159	0x38d58c08	0.00010182714
160	0xbdff20e3	-0.124574445
161	0xbcf7244d	-0.030168677
162	0xbdc8f9b5	-0.09813253
163	0x3dd65a6f	0.104664676
164	0xbe05ea81	-0.13077737
165	0x3dfe1b59	0.1240756
166	0x3e018b4b	0.12650792
167	0x3d5ffc74	0.054684117
168	0xbe1dd358	-0.15412652
169	0x3cdc0637	0.026858432
170	0xbced8f45	-0.02899898
171	0x3d5dfeb2	0.054197975
172	0x3d81f88b	0.06346234
173	0x3db1cca5	0.08681611
174	0xbd43c3ce	-0.047794156
175	0xbda99bb5	-0.08281652
176	0x3c52c5f4	0.0128645785
177	0x3d5ad8c4	0.05342938
178	0xbc8e5440	-0.017374158
179	0x3ccee5c0	0.025256038
180	0xbe04e916	-0.1297954
181	0xbc8f494a	-0.017491002
182	0x3d19b27a	0.037523724
183	0x3d6aab0d	0.057292033
184	0xbcaec240	-0.02133286
185	0xbd9dea31	-0.07710684
186	0xbccc23a2	-0.024919335
187	0xbd3661a7	-0.044526722
188	0xbe1491ae	-0.14508697
189	0xbd0dc828	-0.034614712
190	0x3d314515	0.043278772
191	0xb8af6295	-8.3630126e-05
192	0x3dc6f172	0.09714021
193	0xbdf5144f	-0.11966764
194	0xbd82da22	-0.06389262
195	0xbd11ecb5	-0.035626132
196	0x3e0b34d1	0.13594367
197	0x3df05059	0.11734075
198	0xbc3b59bf	-0.011434971
199	0x3d5b03b3	0.053470325
200	0xbdd9d3be	-0.1063609
201	0xbdc7c1ba	-0.09753747
202	0xb9fd6eda	-0.0004833851
203	0xbd3ddf16	-0.04635533
204	0xbdde5832	-0.10856666
205	0x3d8f7183	0.070040725
206	0x3d18aabe	0.037272207
207	0xbdf55ad9	-0.119802184
208	0xbdc3de34	-0.09563866
209	0x3deef23c	0.11667296
210	0x3cbd318c	0.023094915
211	0xbc6ee269	-0.014580348
212	0xbd4458fd	-0.04793643
213	0xbdea7cfe	-0.114496216
214	0x3df78f42	0.12087871
215	0x3e0c6452	0.13710144
216	0x3d520f2f	0.05128401
217	0x3d473f3d	0.048644293
218	0x3dbee26c	0.0932053
219	0x3db3c3bb	0.08777567
220	0x3db4a036	0.0881962
221	0xbd10695f	-0.03525674
222	0x3dacd469	0.084389515
223	0xbdd0d67d	-0.101971604
224	0xbde6a75f	-0.11262392
225	0xbde6f40c	-0.11277017
226	0xbe061f96	-0.13097987
227	0xbcce07a4	-0.025150128
228	0xbe0a5583	-0.13509183
229	0x3e10ba48	0.1413356
230	0x3d8e2514	0.06940666
231	0xbd32a28a	-0.04361204
232	0xbdefa9be	-0.11702298
233	0x3d964ab8	0.0733847
234	0x3d66ab52	0.056315728
235	0x3dd118d6	0.10209815
236	0xbda45680	-0.08024311
237	0x3d610072	0.054932065
238	0x3d4f53b1	0.050616924
239	0xbd86deeb	-0.06585487
240	0xbd5a37a4	-0.05327572
241	0xbd93e497	-0.072213344
242	0xbad068d5	-0.0015900383
243	0x3dd34320	0.103155375
244	0xbdbf70cc	-0.09347686
245	0xbdd218f5	-0.102586664
246	0xbd81d89c	-0.06340143
247	0x3e0b6baa	0.1361529
248	0x3db88805	0.09010319
249	0x3dede044	0.11615041
250	0xbd5630fe	-0.052292816
251	0x3caf08dc	0.02136653
252	0x3dc7c93e	0.09755181
253	0x3ccd520e	0.02506354
254	0x3d33436a	0.043765463
255	0xbd8cef79	-0.06881613

block1_conv2.bias f4 [16]
0	0x3dd71c11	0.105034
1	0xbd940a04	-0.07228473
2	0xbd23cf96	-0.03999289
3	0xbd584873	-0.052803468
4	0x3e0322b1	0.12806202
5	0xbe11df20	-0.14245272
6	0x3d9c7a57	0.07640522
7	0x3e08aa76	0.13346276
8	0x3e1770b6	0.1478909
9	0xbb9b7aa8	-0.0047448464
10	0xbdecb409	-0.115577765
11	0xbd8337da	-0.06407137
12	0xbcd02198	-0.025406644
13	0xbe170caf	-0.14750932
14	0x3ded1bc3	0.11577561
15	0x3d769f1e	0.06021034

block1_bn.weight f4 [16]
0	0x3f819ce8	1.0126009
1	0x3f7dcd85	0.9914172
2	0x3f7f3e22	0.9970418
3	0x3f817bf0	1.0115948
4	0x3f80aa2f	1.0051936
5	0x3f7f6059	0.9975639
6	0x3f7e0264	0.992224
7	0x3f811ce9	1.0086948
8	0x3f81215a	1.0088303
9	0x3f8057d8	1.0026808
10	0x3f800d17	1.0003995
11	0x3f80170b	1.0007032
12	0x3f7f54e3	0.997389
13	0x3f74e9ac	0.95669055
14	0x3f800f15	1.0004603
15	0x3f7ccc8d	0.9874962

block1_bn.bias f4 [16]
0	0x3ca382a5	0.019959757
1	0x3c263dff	0.010146617
2	0x3adae4b1	0.0016700235
3	0xba1fa99c	-0.00060906424
4	0xbc03d4fc	-0.008046385
5	0x3c465a72	0.012106525
6	0xbc5b7dc7	-0.013396687
7	0xbb53f8d2	-0.0032344353
8	0xbc1d7757	-0.009610972
9	0xbbe0a766	-0.006855893
10	0xbc382888	-0.011240132
11	0x3b96b2ec	0.004598966
12	0xbb362720	-0.0027794316
13	0x3b45e79c	0.0030197864
14	0xbc22f401	-0.00994587
15	0xbc970d15	-0.018438855

block1_bn.running_mean f4 [16]
0	0x3df19613	0.117962025
1	0x3e2c0eba	0.16802493
2	0x3de64f83	0.112456344
3	0x3d2503b8	0.04028675
4	0x3e59f77f	0.21285819
5	0x3d01fc98	0.031735033
6	0x3ea04e85	0.31309906
7	0x3e9214af	0.28531405
8	0x3ebb34f8	0.3656385
9	0x3e12b7b2	0.14327887
10	0x3d5a5a2d	0.053308655
11	0x3ea8035e	0.3281507
12	0x3cefdebd	0.029281015
13	0x38d8f605	0.00010345507
14	0x3f13109c	0.5744722
15	0x3c9eced6	0.019385736

block1_bn.running_var f4 [16]
0	0x3b61bed5	0.003444602
1	0x3e25650a	0.16151825
2	0x3d0a8e89	0.03382734
3	0x3c346057	0.011009297
4	0x3d438e3e	0.047743075
5	0x3c65c206	0.01402331
6	0x3dd5a8ee	0.104326114
7	0x3ce06e24	0.02739627
8	0x3d3dfde2	0.0463847
9	0x3c3f127d	0.011662123
10	0x3cbc7239	0.023003684
11	0x3e82da23	0.2555705
12	0x3b88de6c	0.0041769054
13	0x37df633e	2.6629885e-05
14	0x3e99eed2	0.30065018
15	0x3c09bd40	0.008406937

block2_conv1.weight f4 [32, 16, 3]
0	0xbd159848	-0.03652218
1	0x3dcd0374	0.10010424
2	0xbdd2e473	-0.102974795
3	0x3dee7774	0.116438776
4	0x3de41a33	0.111378096
5	0xbdd1e1a7	-0.10248118
6	0xbe053a64	-0.13010556
7	0xbdb392dd	-0.08768246
8	0xbd8ead24	-0.06966618
9	0x3df5daef	0.12004649
10	0x3d64908e	0.05580192
11	0x3dc35f28	0.09539634
12	0xbdb40983	-0.08790877
13	0xbe09aa28	-0.13443816
14	0xbd28da29	-0.04122368
15	0xbd4e6203	-0.05038644
16	0x3dada882	0.08479406
17	0x3bf181ed	0.0073702247
18	0xbe16b5c0	-0.1471777
19	0xbe131b3d	-0.1436586
20	0x3d50c0a9	0.050964985
21	0x3d41c8b2	0.04731054
22	0xbd36b8cb	-0.044609826
23	0xbdcfe250	-0.101505876
24	0x3d8f49ad	0.069964744
25	0x3dde78cd	0.10862885
26	0xbe018c4c	-0.12651175
27	0xbe017007	-0.12640391
28	0xbcf2a1fa	-0.029618252
29	0xbe151c87	-0.14561664
30	0x3c839a21	0.016064705
31	0xbd937477	-0.07199948
32	0x3c998be3	0.018743461
33	0xbd06974b	-0.032859128
34	0x3c6635af	0.014050885
35	0xbe0cd93f	-0.13754748
36	0xbda90056	-0.08252017
37	0x3d4f41a6	0.050599717
38	0xbde1cd80	-0.11025524
39	0xbc9134af	-0.017725317
40	0xbdd59632	-0.10429038
41	0xbdab89a1	-0.0837586
42	0xbd44e432	-0.048069187
43	0xbe1e621c	-0.15467113
44	0xbc948931	-0.018131824
45	0xbdee092f	-0.116228454
46	0x3c2b8927	0.010469711
47	0xbdc800d2	-0.097657815
48	0x3db6e6d0	0.08930743
49	0x3cd606a8	0.02612622
50	0x3d915b96	0.07097547
51	0x3dd52e84	0.10409263
52	0xbd647f71	-0.0557856
53	0x3dab3e35	0.083614744
54	0xbddc2151	-0.10748542
55	0xbd45925c	-0.048235282
56	0xbc095103	-0.008381131
57	0xbcb87a2b	-0.022519192
58	0x3dc62fa5	0.09677056
59	0x3d9f7972	0.07786836
60	0xbd4590ad	-0.048233677
61	0x3d9feb53	0.078085564
62	0xbdd39b58	-0.10332364
63	0x3dea8e00	0.114528656
64	0x3b37ac29	0.00280262
65	0x3db904bc	0.09034106
66	0x3dec67cf	0.115432374
67	0xbcaa8796	-0.020816606
68	0xbc324e3b	-0.010882909
69	0xbdc64c28	-0.096824944
70	0x3d04daca	0.032435216
71	0xbd640f1b	-0.05567847
72	0x3d50d8d9	0.050988052
73	0x3d939f8d	0.07208166
74	0x3daa79f8	0.08324045
75	0x3d87633c	0.06610724
76	0x3e02369a	0.12716141
77	0x3cea9fd0	0.028640658
78	0x3dffb3a7	0.12485438
79	0xbd325a21	-0.043542985
80	0x3dedcb80	0.1161108
81	0xbcc1c455	-0.023653189
82	0xbc9ecc95	-0.019384662
83	0xbd1b207d	-0.03787278
84	0xbd7b69cb	-0.06138019
85	0x3dee285d	0.116287924
86	0x3de40355	0.11133448
87	0x3dbaec74	0.09127131
88	0xbdf36bf9	-0.118858285
89	0xbd5eaeba	-0.05436585
90	0x3b15f4a9	0.0022881425
91	0x3b3535ff	0.0027650592
92	0x3d9c3437	0.07627147
93	0xbd2d8bf1	-0.042369787
94	0xbc10b43d	-0.008832035
95	0xbd0794db	-0.033100944
96	0x3e08bff0	0.13354468
97	0xbd907072	-0.07052697
98	0x3c42ee13	0.011897582
99	0xbd9397d7	-0.072066955
100	0x3d107113	0.035264086
101	0x3d3971f4	0.04527469
102	0xbd0d8f21	-0.034560326
103	0x3c8c2962	0.017109577
104	0x3c114889	0.008867391
105	0x3adeb50e	0.0016991214
106	0xbdd8784a	-0.10569818
107	0x3df3cf3b	0.119047605
108	0xbde97a68	-0.114003
109	0x3dc4303c	0.095795125
110	0x3dbd97da	0.09257479
111	0x3dc9270f	0.09821903
112	0xbd0a539f	-0.033771154
113	0xbdd18d9a	-0.102320865
114	0xbdf8319d	-0.12118838
115	0x3e04ff1f	0.12987946
116	0xbdd4470f	-0.10365116
117	0x3e0f8cb0	0.14018512
118	0x3d612de7	0.054975417
119	0x3cc79c8f	0.024366645
120	0x3cadc960	0.021214187
121	0xbd900e62	-0.07033993
122	0x3d32322a	0.04350487
123	0xbdf45bc8	-0.119315684
124	0x3d93918c	0.07205495
125	0xbce7c369	-0.028291421
126	0x3de0338a	0.1094733
127	0xbcacfae4	-0.021115728
128	0x3d47734a	0.048693933
129	0xbe044569	-0.12917103
130	0xbda21378	-0.079138696
131	0xbddea0ac	-0.108704895
132	0x3daa72ce	0.083226785
133	0xbe0a1ae0	-0.13486814
134	0x3ddd1794	0.10795513
135	0x3deebc36	0.11656992
136	0x3d989616	0.074505016
137	0x3cca3d12	0.024687324
138	0x3dfdb9f6	0.12388985
139	0xbd905734	-0.07047883
140	0xbd41aa5f	-0.04728162
141	0xbdcc8f2c	-0.09988245
142	0x3dc4d5b4	0.09611073
143	0x3d9eb3f1	0.07749165
144	0xbdc13b6b	-0.09435161
145	0x3e055933	0.13022308
146	0x3e0b7e68	0.13622439
147	0x3d7514a8	0.059834152
148	0xbd5465a8	-0.05185476
149	0x3e0e8b8d	0.13920422
150	0x3c0661da	0.008202041
151	0x3dbea84e	0.09309445
152	0xbdd15e06	-0.10223012
153	0xbde3cdd1	-0.11123241
154	0xbe0f61be	-0.1400213
155	0xbdeb9f84	-0.115050346
156	0x3ccef4d7	0.025263233
157	0xbc8ab24c	-0.016930722
158	0x3a1e10b5	0.0006029711
159	0xbc29d92c	-0.010366719
160	0x3de478fb	0.11155888
161	0x3d9a645e	0.07538675
162	0xbe00c13c	-0.12573713
163	0x3cd3ed2e	0.025869932
164	0x3daec34f	0.08533346
165	0x3df077b7	0.11741584
166	0xbe1afce0	-0.15135527
167	0xbdd1c280	-0.10242176
168	0x3c57f42f	0.0131807765
169	0x3dea971d	0.11454604
170	0x3e00c2b1	0.12574269
171	0x3a4850ca	0.0007641433
172	0xbdd7ecf1	-0.1054324
173	0xbd998c83	-0.074975036
174	0x3dc553e2	0.0963514
175	0x3df62b2c	0.12019953
176	0xb94fa558	-0.00019802654
177	0xbdde179d	-0.108443476
178	0xbbed97c6	-0.007250759
179	0x3d8881dd	0.066653945
180	0xbda8de84	-0.082455665
181	0xbc7a976f	-0.015294894
182	0xbe183309	-0.14863218
183	0x3d7cf437	0.06175634
184	0x3dde4193	0.10852351
185	0x3da76def	0.08175265
186	0x3cd066cd	0.025439644
187	0x3ddd0dab	0.107936226
188	0xbd984c22	-0.07436396
189	0x3e047226	0.12934169
190	0xbc72c991	-0.014818565
191	0x3da4ba2c	0.08043322
192	0x3dac29af	0.08406388
193	0x3d76d111	0.060257975
194	0xbc895632	-0.016764734
195	0x3e12fbfc	0.14353937
196	0xbe0a993c	-0.13535017
197	0x3d203c64	0.039120093
198	0x3d9747ef	0.07386767
199	0xbe0407cc	-0.128936
200	0x3e139ffe	0.14416501
201	0xbd473d89	-0.04864267
202	0x3d8648ed	0.06556878
203	0xbd3de60c	-0.046361968
204	0xbd78d849	-0.06075314
205	0xbd981db1	-0.07427538
206	0x3d1ff62c	0.039053127
207	0x3da020e0	0.078187704
208	0xbd498667	-0.04920044
209	0xbe07afd2	-0.13250664
210	0xbced4fe6	-0.028968763
211	0xbe113ef8	-0.14184177
212	0x3dc5d829	0.0966037
213	0xbe0d876f	-0.13821195
214	0xbd8ea749	-0.06965501
215	0x3b020baa	0.0019843378
216	0x3d810257	0.062992744
217	0xbcd2748a	-0.025690336
218	0x3d7821df	0.060579177
219	0x3b613abb	0.0034367281
220	0x3db1b704	0.086774856
221	0xbd4dd743	-0.050254118
222	0xbcf05d96	-0.0293415
223	0x3ae0045c	0.0017091143
224	0x3d75af62	0.05998171
225	0x3cc27a43	0.02373994
226	0x3df9a7bb	0.12190195
227	0x3ddb436e	0.107062206
228	0x3d84750d	0.06467638
229	0x3abefe5d	0.0014571656
230	0x3d3c301c	0.04594432
231	0x3dc91487	0.098183684
232	0x3d9c1000	0.07620239
233	0x3b620d8d	0.003449294
234	0x3da624c0	0.08112478
235	0x3c1ec49f	0.009690433
236	0x3d82b830	0.06382787
237	0xbe05d0f9	-0.13067998
238	0xbcc16449	-0.02360739
239	0xbdc890f7	-0.09793275
240	0xbdf0e1a3	-0.11761787
241	0x3d04dce3	0.032437216
242	0xbdba427c	-0.09094712
243	0x3e0ecb29	0.13944687
244	0xbdf381b5	-0.11889974
245	0xbd652f8f	-0.05595356
246	0xbe1f4dbc	-0.15556997
247	0xbdd57af3	-0.10423841
248	0xbbebd210	-0.0071966723
249	0xbc55dd3c	-0.013053235
250	0x3d5c5720	0.053794026
251	0xbdfd2ec9	-0.12362439
252	0x3d8c4e21	0.068508394
253	0xbdfd23b4	-0.123603255
254	0xbdd1acb3	-0.10238018
255	0xbb8adde6	-0.004237878

block2_conv1.bias f4 [32]
0	0xbd9350b4	-0.07193127
1	0xbd8c163a	-0.06840177
2	0x3de6a253	0.1126143
3	0xbb61a630	-0.003443133
4	0x3d1bbf6d	0.038024355
5	0x3dec7450	0.11545622
6	0xbcf2358b	-0.029566547
7	0xbde1df3a	-0.11028905
8	0x3e06920d	0.13141651
9	0x3e0c1e64	0.13683468
10	0x3dba1bdb	0.09087344
11	0xbe0325fc	-0.12807459
12	0x3d7621e3	0.06009091
13	0xbdbad379	-0.091223665
14	0x3d8ad5e7	0.0677908
15	0xbd0501f8	-0.03247258
16	0xbd28b4d0	-0.04118806
17	0x3d9a10b5	0.07522718
18	0x3d7022de	0.058627002
19	0xbdabb7dc	-0.08384678
20	0xbcdacc58	-0.026708767
21	0xbdc1e050	-0.09466612
22	0x3db1e7db	0.08686801
23	0x3cfe3471	0.031030865
24	0x3dd7c798	0.10536116
25	0xbdd5b668	-0.10435182
26	0x3df89697	0.12138098
27	0x3d6bb15d	0.057542194
28	0x3ddaf3a5	0.10691003
29	0xbcff281a	-0.031147052
30	0xbd892b56	-0.06697719
31	0x3d5af24c	0.05345373

block2_conv2.weight f4 [32, 32, 3]
0	0xbc0fcaee	-0.00877641
1	0x3d8e0dc9	0.06936223
2	0x3d6eb03d	0.058273543
3	0x3db80da7	0.08986979
4	0xbdbb860b	-0.09156426
5	0x3b9ac639	0.004723337
6	0xbda3652a	-0.0797828
7	0xbc9acd90	-0.018896848
8	0xbd3a5927	-0.04549518
9	0xbc922df7	-0.017844183
10	0xbd945bab	-0.07244047
11	0xbcf92bfa	-0.030416477
12	0x3d8cbfbe	0.068725094
13	0x3da6d811	0.0814668
14	0x3ce7bbb9	0.028287755
15	0xbd3dfb4c	-0.046382234
16	0xbd48e4d1	-0.04904634
17	0xb78e94fb	-1.6997094e-05
18	0x3b5b46db	0.0033458981
19	0xbcbdc4fd	-0.02316522
20	0xbd8daa69	-0.06917269
21	0xbdc95841	-0.09831286
22	0x3dc990d6	0.098420784
23	0x3d9c7089	0.07638652
24	0x3dc54184	0.09631637
25	0x3a90ddc9	0.0011052425
26	0x3da1a4aa	0.07892735
27	0xbc92e087	-0.017929329
28	0xbce2f360	-0.02770394
29	0x3d54ccf8	0.051953286
30	0xbd0cd3ee	-0.0343818
31	0xbd51367c	-0.05107735
32	0xbd7fa716	-0.062415205
33	0xbd0a69a3	-0.03379215
34	0x3cef19dc	0.029187135
35	0x3c92a881	0.017902615
36	0xbd869734	-0.065718085
37	0x3d3e2a06	0.046426795
38	0x3cbe55b5	0.023234228
39	0x3ad7d59d	0.001646686
40	0xbd255e5c	-0.04037319
41	0x3d40cbfb	0.04706953
42	0xbcb398bc	-0.021923415
43	0xbbc95692	-0.006144353
44	0xbb9e6689	-0.0048340005
45	0xbc79c6e9	-0.015245178
46	0x3d32674c	0.043555543
47	0x3d5bc780	0.053657055
48	0x3b4adefa	0.0030955658
49	0xbd854b73	-0.065085314
50	0xbda884a9	-0.08228428
51	0xbd9e970e	-0.07743655
52	0xbd0a0b79	-0.033702347
53	0xbde19fb8	-0.11016792
54	0x3d8d5b17	0.0690214
55	0x3d48a9cb	0.048990052
56	0xba1b460c	-0.00059232186
57	0x3d03163e	0.032003634
58	0xbd50a548	-0.050938874
59	0x3d81d3ac	0.06339201
60	0xbd64f5eb	-0.05589859
61	0x3d352019	0.044220064
62	0xbd1c37ee	-0.038139276
63	0x3dac3d4e	0.084101304
64	0xbd250f23	-0.04029764
65	0xbd6abd51	-0.057309452
66	0x3ca177e1	0.019710483
67	0x3db78c0d	0.089622594
68	0xbbae3b97	-0.0053171623
69	0xbd5c3cd8	-0.053768963
70	0x3d37ad3e	0.04484295
71	0xbd510c9c	-0.051037416
72	0x3d985962	0.074389234
73	0x3d1fbcaf	0.038998302
74	0xbcd8e683	-0.026477104
75	0xbd870d96	-0.06594388
76	0xbd1cc4b3	-0.038273524
77	0xbc792bc6	-0.01520819
78	0x3c34e8e7	0.011041856
79	0xbda08f81	-0.07839871
80	0xbd332b8c	-0.0437427
81	0x3c7e41d7	0.015518627
82	0x3d68e818	0.056861967
83	0x3d1b949d	0.037983526
84	0x3d57ccbd	0.052685488
85	0xbd04daec	-0.032435343
86	0xbd315782	-0.043296345
87	0xbd19053f	-0.03735852
88	0x3d280570	0.04102081
89	0xbb6d0d2e	-0.0036171186
90	0xbd8e2d76	-0.06942265
91	0xbd96a8df	-0.07356428
92	0x3d668bbd	0.05628561
93	0xbdcb816e	-0.09936796
94	0xbcfec091	-0.031097682
95	0x3d175ecc	0.03695564
96	0x3cdd550f	0.027018098
97	0xbb0f847c	-0.0021899035
98	0x3d8ba3ee	0.068183765
99	0x3c289214	0.010288734
100	0x3cae9978	0.021313414
101	0x3dbb1e08	0.091365874
102	0x3c5ac267	0.013352013
103	0xbcba7286	-0.022759687
104	0x3d5f751f	0.054555055
105	0x3c346981	0.011011482
106	0x3c8f901d	0.017524773
107	0x3db854e0	0.090005636
108	0x3d3bfabd	0.04589342
109	0xbba92d66	-0.0051628826
110	0xbc47a9df	-0.0121864965
111	0xbd6c4780	-0.057685375
112	0x3cf4afe2	0.029869024
113	0xbc88b522	-0.016687933
114	0xbdb6ce54	-0.08926073
115	0xbd426f78	-0.047469586
116	0x3cfd2e28	0.030905798
117	0xbc8d0eb3	-0.017218923
118	0xbd96fb08	-0.07372099
119	0xbd466ba7	-0.04844251
120	0x3d2538d4	0.0403374
121	0x3da1d874	0.07902613
122	0x3cc51716	0.02405886
123	0x3dce575e	0.10075258
124	0xbc6a33df	-0.014294594
125	0xbd79026c	-0.060793325
126	0xbd10d757	-0.035361614
127	0xbc60c329	-0.013718405
128	0xbdcb3827	-0.099228196
129	0xbd055c50	-0.03255874
130	0x3cec698a	0.028858919
131	0xbd3d567f	-0.046225067
132	0x3d859965	0.06523398
133	0xbd3b618f	-0.045747336
134	0x3d8dc467	0.069222264
135	0xbd88b58e	-0.06675254
136	0xbdb35fd0	-0.08758509
137	0xbdb25594	-0.08707729
138	0x3ddc9098	0.107697666
139	0x3dc72a22	0.09724833
140	0x3da918c1	0.082566746
141	0xbd1b3bc4	-0.037898794
142	0xbd618c31	-0.055065338
143	0x3d64c752	0.05585415
144	0x3d1ba2a7	0.037996914
145	0x3d9b9775	0.075972475
146	0xbd4876a0	-0.048941255
147	0x3dcfbeda	0.10143824
148	0x3d192c48	0.037395746
149	0x3d798115	0.060914118
150	0xbda765c4	-0.08173707
151	0x3dbb3ee6	0.09142856
152	0xbdd1a070	-0.10235679
153	0xbbbb283a	-0.0057115825
154	0xbdcc6a2a	-0.09981187
155	0xbdf13962	-0.11778523
156	0x3d8e578b	0.06950291
157	0xbd95e0d4	-0.07318273
158	0x3dab661b	0.083690844
159	0x3cd2c8f8	0.025730595
160	0xbd8293e7	-0.063758664
161	0xbdb6b097	-0.089204006
162	0xbdaeec21	-0.08541132
163	0x3dca52ab	0.09879049
164	0x3cb9eb8d	0.022695327
165	0xbda8e3ea	-0.08246596
166	0x3dae2587	0.085032515
167	0x3b12f4ca	0.0022423738
168	0x3dc6b996	0.097033665
169	0x3dc00f1b	0.09377881
170	0xbd81cc72	-0.06337823
171	0x3d935fd6	0.07196014
172	0xbdb04eec	-0.08608803
173	0xbcff3302	-0.031152252
174	0x3d4bb48b	0.049732726
175	0x3dab5612	0.08366026
176	0x3b25da4f	0.0025307124
177	0x3de5d21c	0.11221716
178	0x3c0d7083	0.008632782
179	0xbca2a5fc	-0.019854538
180	0xbcb6a3ad	-0.022294844
181	0xbd0aa75e	-0.03385102
182	0x3a8d488f	0.001077907
183	0xbdd99cf8	-0.106256425
184	0x3d7596f7	0.059958424
185	0x3c9087ed	0.01764294
186	0xbdc6eb5c	-0.0971286
187	0x3a870b7b	0.0010303104
188	0x3d8e656d	0.06952939
189	0x3d999065	0.07498244
190	0xbac592d3	-0.0015073664
191	0x3d930bd3	0.0717999
192	0xbcc0e12e	-0.023544874
193	0xbdde374a	-0.10850389
194	0xbcb598c7	-0.022167576
195	0xbdadb53f	-0.084818356
196	0x3d8e7202	0.06955339
197	0x3d0aa8e3	0.03385247
198	0xbd88504b	-0.0665594
199	0x3dbca534	0.092111975
200	0x3d9baf8d	0.07601843
201	0xbd114efb	-0.035475712
202	0xbdc9a4a4	-0.09845856
203	0x3db8b5cd	0.09019051
204	0xbdb8cb83	-0.09023192
205	0xbd858806	-0.06520085
206	0x3d19462e	0.037420444
207	0xbde4110f	-0.11136066
208	0xbd5fe2f5	-0.054659802
209	0xbda62d88	-0.08114153
210	0x3ba03e42	0.004890234
211	0xbda03020	-0.07821679
212	0xba76002e	-0.0009384182
213	0xbda3352b	-0.07969125
214	0x3dd360d1	0.10321201
215	0x3ddbee5d	0.107388236
216	0x3d4af196	0.0495468
217	0xbd9c3978	-0.07628149
218	0x3db57e91	0.08862031
219	0x3d9dc5ea	0.07703765
220	0xbd363188	-0.04448083
221	0x3dacac2e	0.08431278
222	0xbc226ca1	-0.009913594
223	0xbd91d53c	-0.07120749
224	0xbd9320ee	-0.07184015
225	0xbd4b21aa	-0.04959265
226	0x3d6945bb	0.056951266
227	0xbcc4c75b	-0.024020841
228	0xbcba28f5	-0.022724608
229	0x3d54984a	0.051903047
230	0xbd159ccc	-0.036526486
231	0xbd69c4f4	-0.057072595
232	0x3d60fc86	0.054928325
233	0x3c6b5aa3	0.014364871
234	0x3d0c2cb3	0.034222316
235	0x3d754147	0.059876706
236	0x3cb0600b	0.021530172
237	0xbd8b288a	-0.067948416
238	0x3da3faa8	0.08006793
239	0x3af68691	0.0018808414
240	0xbdb1be1b	-0.08678838
241	0xbdc55425	-0.0963519
242	0x3d76ffe9	0.06030265
243	0x3d27b772	0.04094643
244	0xbd8dcc48	-0.06923729
245	0x3d5aec63	0.053448092
246	0x3d8fdb99	0.07024307
247	0x3c3f916b	0.011692385
248	0x3d237ed7	0.039915886
249	0xbce2a06d	-0.027664388
250	0xbd87c213	-0.066288136
251	0xbd4eca2a	-0.050485767
252	0x3d8ccdb4	0.06875172
253	0xbd1d5b71	-0.038417283
254	0x3c9bc540	0.019014955
255	0x3c9be808	0.01903154

block2_conv2.bias f4 [32]
0	0xbd62984c	-0.055321023
1	0x3bb0d773	0.0053967773
2	0xbd17932d	-0.037005592
3	0x3dde2892	0.10847582
4	0xbbfaa247	-0.0076487395
5	0x3c84188a	0.016124982
6	0xbd75f500	-0.060048103
7	0x3d4b499a	0.04963074
8	0x3da61dd2	0.081111565
9	0x3d9d764a	0.076885775
10	0xbd1afbf4	-0.037837937
11	0xbd8c6b25	-0.06856374
12	0x3d0062ab	0.031344097
13	0xbd8fa216	-0.07013337
14	0x395a9bed	0.00020848187
15	0x3c92b9a7	0.017910792
16	0x3c68b8bd	0.014204201
17	0x3bf3addd	0.0074364976
18	0x3d68f026	0.05686965
19	0xbd07cece	-0.03315621
20	0x3d850f7b	0.06497093
21	0xbcd7151f	-0.026255189
22	0x3e01fd96	0.12694392
23	0xbd8318e1	-0.0640123
24	0xbd2b9c92	-0.041897364
25	0xbcf50899	-0.029911326
26	0xbda637a9	-0.08116085
27	0x3cc7b8ab	0.024380049
28	0xbce3b2e4	-0.027795263
29	0x3dbdd088	0.0926829
30	0x3dc90839	0.098160215
31	0xbc2129f6	-0.009836664

block2_bn.weight f4 [32]
0	0x3f7a2fa4	0.97728944
1	0x3f813f5c	1.0097461
2	0x3f7e11a7	0.99245685
3	0x3f801361	1.0005914
4	0x3f7de579	0.9917827
5	0x3f804b78	1.0023031
6	0x3f73b2df	0.9519481
7	0x3f7f40fd	0.9970854
8	0x3f813a39	1.0095893
9	0x3f81b919	1.0134612
10	0x3f7f1ac4	0.99650216
11	0x3f7e5005	0.9934085
12	0x3f80d148	1.0063868
13	0x3f80a051	1.0048925
14	0x3f826b77	1.0189046
15	0x3f7fee18	0.9997268
16	0x3f7ba27e	0.9829482
17	0x3f7fbc0d	0.9989632
18	0x3f7f646a	0.99762595
19	0x3f7cfabd	0.98820096
20	0x3f80ae44	1.0053182
21	0x3f7f55dc	0.99740386
22	0x3f8149e3	1.0100673
23	0x3f8145fe	1.0099485
24	0x3f7fa78e	0.99865043
25	0x3f7ebb5e	0.9950465
26	0x3f7c31fe	0.9851378
27	0x3f805a7d	1.0027615
28	0x3f800786	1.0002296
29	0x3f8176bd	1.0114361
30	0x3f804640	1.0021439
31	0x3f82569a	1.0182679

block2_bn.bias f4 [32]
0	0xbba006eb	-0.004883637
1	0x3c6eb0e7	0.014568544
2	0x3cd0cefe	0.025489327
3	0xbb8c8d50	-0.0042893067
4	0xbd0b856a	-0.03406278
5	0x3b313a55	0.0027042825
6	0x3b79277a	0.0038017915
7	0xbc01a722	-0.007913383
8	0xbc80d7c7	-0.01572789
9	0x3ccf4c26	0.025304865
10	0xbc4fa663	-0.012673947
11	0xbac8599c	-0.0015285495
12	0x3d0a3f25	0.033751626
13	0xbc71bbf9	-0.014754289
14	0x3c50d556	0.012746176
15	0x3cd28dcc	0.02570238
16	0x3b6adf67	0.0035838725
17	0x3b5fdcf2	0.0034158793
18	0xbcc51c5d	-0.024061376
19	0x3bb0fb00	0.0054010153
20	0xbc4508b5	-0.012026002
21	0x3bc9b7ab	0.006155928
22	0xbcc41370	-0.02393505
23	0x3c323f07	0.010879285
24	0xbb7e20e8	-0.0038776938
25	0xbc81163f	-0.015757678
26	0x3c010db4	0.007876802
27	0xbc6d42e1	-0.014481277
28	0xbc8e0dec	-0.017340623
29	0x3ca5984c	0.020214222
30	0xbb1489b6	-0.002266509
31	0x3b8a52fb	0.004221318

block2_bn.running_mean f4 [32]
0	0x3b7082b7	0.0036699006
1	0x3e2514dd	0.1612124
2	0x3d984a0c	0.07435998
3	0x3e77be75	0.24193747
4	0x3d032a9d	0.03202306
5	0x3e58f7b1	0.21188237
6	0x3c1ccce2	0.009570332
7	0x3dcaa7d7	0.09895294
8	0x3e0baa4d	0.13639183
9	0x3d7d217e	0.06179952
10	0x3ce0e320	0.027452052
11	0x3d1a4815	0.0376664
12	0x3d64bdfd	0.05584525
13	0x3c87fc34	0.016599752
14	0x3d64a877	0.055824723
15	0x3cd648fd	0.02615785
16	0x3e378b98	0.17924345
17	0x3d9b6d29	0.0758918
18	0x3d7e23a0	0.062045693
19	0x3da04843	0.07826283
20	0x3d8af22b	0.06784471
21	0x3da2c7a6	0.07948236
22	0x3e120959	0.14261378
23	0x3d095458	0.033527702
24	0x3d4fb901	0.050713543
25	0x3d1cb272	0.038256116
26	0x3e1104ff	0.14162062
27	0x3e18e770	0.14932036
28	0x3c98e52b	0.018663963
29	0x3dab1853	0.08354249
30	0x3ddd11a4	0.1079438
31	0x3e71eba1	0.23625042

block2_bn.running_var f4 [32]
0	0x3aa9015b	0.0012894081
1	0x3ca7efe1	0.020500125
2	0x3d5e7a50	0.054315865
3	0x3c90da29	0.017682152
4	0x3bda063b	0.0066535748
5	0x3dd5ad69	0.10433466
6	0x3b83d89b	0.004023624
7	0x3c15c67d	0.009141562
8	0x3ca10050	0.01965347
9	0x3b593a9e	0.003314651
10	0x3beb66ad	0.0071838708
11	0x3c9b0bd6	0.018926542
12	0x3bdb1025	0.006685274
13	0x3aa7fd27	0.0012816534
14	0x3c87a431	0.016557785
15	0x3b4f57d1	0.0031638036
16	0x3ccc6f08	0.024955288
17	0x3cad7227	0.021172596
18	0x3ceb8dd4	0.028754152
19	0x3bbd1f2d	0.0057715387
20	0x3bd25483	0.006418766
21	0x3d498048	0.049194604
22	0x3bfc87fc	0.0077066403
23	0x3b7b6c8b	0.0038364257
24	0x3c67de3c	0.014152106
25	0x3c08fdd0	0.008361295
26	0x3d78865d	0.060675014
27	0x3c9ad7f4	0.018901803
28	0x3babf726	0.0052479682
29	0x3b976ab5	0.0046208748
30	0x3c9b78b8	0.018978462
31	0x3dbc0420	0.09180474

block3_conv1.weight f4 [64, 32, 3]
0	0x3d14a8c8	0.036293775
1	0xbcc5a49d	-0.024126345
2	0xbd875327	-0.06607657
3	0x3b0e27d3	0.0021691218
4	0xbdd28d43	-0.1028085
5	0xbdf6d8e9	-0.12053091
6	0xbd078393	-0.033084463
7	0x3d8f4db0	0.069972396
8	0xbd46c890	-0.048531115
9	0x3dbeb01d	0.09310935
10	0x3c42a94f	0.011881187
11	0xbd1c855b	-0.038213115
12	0x3d81beca	0.06335218
13	0x3dbd0e75	0.09231273
14	0x3cc5977a	0.024120081
15	0xbd3444de	-0.04401099
16	0xbdb51e81	-0.08843709
17	0xbcacc9ba	-0.021092284
18	0x3dad8c7c	0.08474061
19	0x3db93c6b	0.09044727
20	0x3c591204	0.013248924
21	0xbc891883	-0.01673532
22	0x3cf202f3	0.029542422
23	0xbd846ce5	-0.064660825
24	0xbcf3468e	-0.029696729
25	0x3d911c6b	0.070854984
26	0x3d86336a	0.06552775
27	0x3d933cd0	0.071893334
28	0x3c8157a1	0.015788855
29	0x3d9a9b78	0.075491846
30	0xbd0d2a1a	-0.03446398
31	0xbc884e20	-0.016638815
32	0xbda090cb	-0.07840117
33	0x3d3ca39a	0.04605446
34	0xbc9073a4	-0.017633267
35	0xbdacb51c	-0.08432981
36	0xbd18dd74	-0.03732057
37	0x3d6109d9	0.054941032
38	0x3d8672b1	0.065648444
39	0x3d6f7d17	0.058468904
40	0x3d60769d	0.05480062
41	0x3db5135e	0.088415846
42	0xbd9af468	-0.07566148
43	0x3c4e8523	0.012604984
44	0xbd708903	-0.058724415
45	0x3b144387	0.0022623257
46	0xbd96097e	-0.07326029
47	0xbd93573a	-0.071943715
48	0xbda1b1ef	-0.07895266
49	0x3da4a53f	0.08039331
50	0x3cbedf6b	0.023299893
51	0x3d017738	0.031607836
52	0xbde2c637	-0.11072963
53	0xbd525928	-0.051354557
54	0x3da5bc59	0.08092565
55	0xbda174d0	-0.07883608
56	0xbd9dd193	-0.07705989
57	0xbd85b061	-0.06527782
58	0xbda7dbc0	-0.08196211
59	0xbd480062	-0.04882849
60	0x3d04fe3d	0.032469023
61	0x3df3aaea	0.11897834
62	0xbd353fac	-0.044250175
63	0xbccc8431	-0.024965378
64	0x3d5fc09c	0.054627046
65	0xbd8bd00c	-0.06826791
66	0x3d99e6e6	0.075147435
67	0x3d5e8296	0.054323755
68	0xbdc6e8e2	-0.097123876
69	0xbd9792e8	-0.07401067
70	0x3d76e2fb	0.06027506
71	0xbd91cdf6	-0.07119362
72	0xbd7f67d6	-0.062354885
73	0x3d70a424	0.058750287
74	0xbc9adc0a	-0.01890375
75	0xbceabc86	-0.028654348
76	0xbd91e01a	-0.07122822
77	0x3c1277a8	0.008939661
78	0xbdd0de0c	-0.10198602
79	0x3b837926	0.0040122448
80	0xbca11a02	-0.019665722
81	0xbd724b60	-0.059153914
82	0x3daa3303	0.08310511
83	0x3bdd6128	0.0067559667
84	0x3dda46b0	0.10658014
85	0xbd0459dc	-0.03231226
86	0x3d23a688	0.03995374
87	0x3c82b4d8	0.015955374
88	0x3cef0a1b	0.029179623
89	0xbb4c584b	-0.0031180556
90	0xbc76ed12	-0.01507117
91	0x3cecb8ee	0.028896775
92	0xbd88774f	-0.06663381
93	0xbd968f89	-0.07351596
94	0xbd692089	-0.056915794
95	0xbdaf7f88	-0.085692465
96	0xbd0679c7	-0.03283098
97	0x3cdb90de	0.026802476
98	0x3c60ce4b	0.013721059
99	0xbd18c289	-0.0372949
100	0x3bf28ec2	0.007402272
101	0x3d90c863	0.07069471
102	0xbd79a8fb	-0.060952168
103	0xbc2242e3	-0.009903642
104	0xbdb39724	-0.08769062
105	0xbda7a476	-0.08185665
106	0xbd216f2a	-0.039412655
107	0x3d3046f1	0.043036405
108	0xbd837b37	-0.06419986
109	0x3d6fa98e	0.05851131
110	0xbc4d406d	-0.012527567
111	0xbd3244bf	-0.043522593
112	0xbc435b1d	-0.011923579
113	0xbd332b63	-0.04374255
114	0x3c9dab33	0.019246673
115	0xbd1574d3	-0.036488365
116	0xbcac46fd	-0.021029944
117	0xbc226874	-0.009912599
118	0xbdbae927	-0.091265015
119	0x3c63c998	0.013903044
120	0x3d92fa1b	0.0717661
121	0xbc2bd25e	-0.010487167
122	0x3dd8add2	0.105800286
123	0xbda5cbe9	-0.080955334
124	0xbd7a2eea	-0.061079897
125	0xbd2ceebd	-0.042219866
126	0xbccd7433	-0.025079822
127	0x3dbe86d5	0.09303061
128	0x3d985db6	0.07439749
129	0xbcc9c9eb	-0.024632415
130	0x3abd4c0e	0.0014442222
131	0xbdd51414	-0.1040422
132	0xbce260ec	-0.027634107
133	0x3db6e949	0.08931214
134	0x3d885d50	0.06658423
135	0x3c7cdc00	0.015433311
136	0x3dbd6b87	0.09249025
137	0x3dc049dc	0.093890876
138	0x3cd32965	0.025776574
139	0xbd772b65	-0.06034412
140	0x3d398c1e	0.04529964
141	0x3c8e1d32	0.017347906
142	0x3c72d454	0.014821131
143	0xbdc6ed6c	-0.097132534
144	0x3c9de90d	0.019276166
145	0x3d4ab138	0.049485415
146	0x3d43fb98	0.04784736
147	0xbd0a80f6	-0.033814393
148	0x3daefcdc	0.08544323
149	0x3ce41209	0.027840631
150	0xbcf383e4	-0.029725976
151	0xbc32fb05	-0.0109241055
152	0x3d45b34d	0.048266698
153	0x3d8e9b26	0.06963186
154	0x3da5d52f	0.08097302
155	0x3cf136c6	0.029445063
156	0x3d1fdd6c	0.039029524
157	0xbc819397	-0.015817447
158	0x3c9e05a4	0.019289799
159	0xbd3442de	-0.044009082
160	0xbd0f9323	-0.03505243
161	0x3db05274	0.08609477
162	0xbda5217e	-0.08063029
163	0x3d815c0f	0.06316387
164	0xbda46b72	-0.08028306
165	0x3b191074	0.0023355754
166	0xbd22dbe7	-0.039760496
167	0x3cd62eed	0.026145423
168	0x3c730a31	0.014833973
169	0x3dc7e5c0	0.09760618
170	0x3c47e1d5	0.012199839
171	0x3d9b1737	0.07572787
172	0x3d8d4313	0.06897559
173	0xbb31d62b	-0.002713571
174	0xbd009e2f	-0.031400856
175	0xbd57c98f	-0.052682456
176	0x3c62ba4b	0.013838361
177	0xbc480e3a	-0.012210423
178	0x3d20f1fa	0.039293267
179	0x3ce3a155	0.02778689
180	0xbca6b021	-0.020347657
181	0x3d3e02f3	0.04638953
182	0xbdb73061	-0.089447744
183	0x3dda00a2	0.10644652
184	0x3c97c0bc	0.01852452
185	0xbc9e6fea	-0.019340474
186	0x3baefc7b	0.0053401566
187	0xbcba3382	-0.022729639
188	0x3db05b77	0.086111955
189	0x3d15dee1	0.036589507
190	0x3bf1c530	0.007378243
191	0xbd4c7c8a	-0.049923457
192	0xbc33ea38	-0.010981135
193	0xbdebbcc3	-0.11510613
194	0xbdc35fda	-0.095397666
195	0x3dbb4e2f	0.09145772
196	0x3d7062b4	0.05868788
197	0x3d5aab31	0.053385917
198	0xbd4c7f88	-0.04992631
199	0xbdb7e8fb	-0.089799844
200	0x3d23f1b8	0.040025443
201	0x3db1d3c2	0.08682968
202	0xbcbc6496	-0.022997182
203	0x3cf77db3	0.030211305
204	0x3cbe19ed	0.023205722
205	0x3c95e68f	0.018298415
206	0x3d5c02e8	0.05371371
207	0xbd816371	-0.06317795
208	0x3d9cbec9	0.07653577
209	0x3c9ddbbc	0.019269817
210	0x3d910c4a	0.07082422
211	0x3d9f2751	0.07771171
212	0xbdb52ad4	-0.088460594
213	0xbda6ae71	-0.08138741
214	0xbdac8fc0	-0.08425856
215	0xbda6b0d8	-0.08139199
216	0x3ca253f6	0.019815426
217	0x3da54edd	0.080716826
218	0xbd36700a	-0.044540443
219	0xbda169ff	-0.07881545
220	0xbd751125	-0.059830803
221	0xbd90046a	-0.07032092
222	0xbca3fb74	-0.020017363
223	0x3ce0649e	0.027391728
224	0xbda8b427	-0.08237486
225	0x3d917692	0.071026936
226	0x3bdc6037	0.006725337
227	0x3c2da90c	0.010599386
228	0x3ce669d5	0.028126637
229	0xbdd7b8ee	-0.105333194
230	0x3dbba921	0.09163118
231	0xbb984ed8	-0.004648071
232	0xbdcb210c	-0.099184126
233	0x3d80abf6	0.06282799
234	0xbcfd1a40	-0.030896306
235	0xbdd8cd49	-0.1058603
236	0xbd1bdc4e	-0.038051896
237	0x3d66945f	0.05629384
238	0x3d94e563	0.072703145
239	0x3d905719	0.070478626
240	0xbdb22750	-0.086989045
241	0x3dcd91aa	0.10037549
242	0x3d96c9c5	0.07362703
243	0xbcf0d091	-0.029396327
244	0xbcd8fe85	-0.026488552
245	0xbd699630	-0.057027996
246	0xbd4a9045	-0.049453992
247	0xbd4e8bd8	-0.050426334
248	0x3d41eedb	0.04734693
249	0xbdaa8fb3	-0.0832819
250	0xbbc020af	-0.005863271
251	0xbcbbfdc7	-0.022948159
252	0xbd484c40	-0.048900843
253	0x3d9d735b	0.07688018
254	0xbd900e0b	-0.070339285
255	0xbd7b2f1b	-0.06132422

block3_conv1.bias f4 [64]
0	0x3cbc9372	0.023019526
1	0x3da3805d	0.07983468
2	0xbd71f22c	-0.059068844
3	0x3d61c85c	0.05512272
4	0x3ce1292c	0.027485453
5	0xbd2fb410	-0.04289633
6	0xbd3827c9	-0.044959817
7	0x3d0069da	0.031350948
8	0xbdb7e69c	-0.08979532
9	0x3dfe8bc2	0.124290004
10	0x3c0e9af5	0.008703937
11	0x3c99f406	0.018793117
12	0x3d37b87f	0.044853684
13	0x3da97d2e	0.08275829
14	0x3d12f480	0.035877705
15	0x3d986245	0.074406184
16	0x3d5f7b38	0.05456087
17	0xbd72875f	-0.05921113
18	0x38c132fc	9.212454e-05
19	0xbcba8a5e	-0.022771057
20	0xbc61101e	-0.013736753
21	0xbdc05790	-0.09391701
22	0x3ca045c1	0.019564511
23	0x3dcfab3a	0.10140081
24	0x3dcfd528	0.10148078
25	0x3d297d65	0.04137935
26	0x3d8ffd1d	0.070306994
27	0x3d29eafb	0.04148386
28	0xbdc064f5	-0.09394256
29	0xbc06fc92	-0.008238928
30	0x3db8ec72	0.09029473
31	0x3d6d44b6	0.057926856
32	0x3d8e15e1	0.06937767
33	0x3d9b022e	0.07568775
34	0x3d001448	0.03126934
35	0xbcd2bb45	-0.025724063
36	0x39623689	0.00021573355
37	0xbbde516e	-0.0067846095
38	0xb805dfd1	-3.1918116e-05
39	0xbcf9d94c	-0.030499123
40	0xbdac201e	-0.08404563
41	0x3d73ce2a	0.059522785
42	0x3d68002c	0.05664079
43	0xbd9931c4	-0.07480195
44	0x3d39477b	0.045234185
45	0x3d0adc7d	0.03390168
46	0xbd852459	-0.065010734
47	0x3dbed287	0.09317499
48	0xbd1e1976	-0.0385985
49	0x3d4d6e4b	0.05015401
50	0x3d00e457	0.03146776
51	0xbde0635d	-0.10956452
52	0xbbf9ad35	-0.007619525
53	0x3d81a983	0.0633116
54	0xbdb82270	-0.089909434
55	0x3d93671c	0.07197401
56	0x3d028005	0.03186037
57	0x3c95985a	0.018261123
58	0xbdd504b7	-0.1040129
59	0x3df201f8	0.11816782
60	0x3c84b8f8	0.016201481
61	0x3d8738b2	0.06602611
62	0xbc7c208a	-0.015388617
63	0x3d64f987	0.05590203

block3_conv2.weight f4 [64, 64, 3]
0	0x3d96da1d	0.073658206
1	0x3d59942c	0.053119823
2	0xbd33bea3	-0.043882977
3	0x3cd543ed	0.026033366
4	0xbbadd187	-0.0053045186
5	0xbd83315c	-0.06405899
6	0x3d4f8dd5	0.05067237
7	0x3d480f4f	0.048842724
8	0x3d94b0fc	0.072603196
9	0xbcb5f11a	-0.022209693
10	0x3d5d8735	0.05408402
11	0xbd88912c	-0.06668314
12	0x3bfb02c2	0.007660241
13	0xbce72bb3	-0.02821908
14	0x3d36c077	0.044617143
15	0xbd1aaa73	-0.03776021
16	0xbccdb00f	-0.025108365
17	0xbbd2dbb9	-0.0064348844
18	0xbd05a3df	-0.032626983
19	0x3d24f673	0.040274095
20	0xbd57748d	-0.052601386
21	0x3cad5c49	0.021162169
22	0x3d3793c7	0.044818666
23	0xbc8a7f75	-0.01690648
24	0xbd07a173	-0.033112954
25	0x3c7544e2	0.014970036
26	0x3d71152f	0.058858093
27	0x3b1b2da7	0.0023678334
28	0xbba1b9d5	-0.004935483
29	0xbb578207	-0.0032883899
30	0xbbd50d38	-0.00650182
31	0x3b861f58	0.004093092
32	0x3d142217	0.036165323
33	0xbb5cce49	-0.0033692291
34	0xbb8d2d2c	-0.0043083634
35	0x3ad53c95	0.0016268665
36	0x3d482730	0.048865497
37	0x3ada2ce4	0.0016645459
38	0xbc4181f2	-0.0118107665
39	0xbdc1da0a	-0.09465416
40	0xbd634cd9	-0.05549321
41	0x3d8f5f01	0.070005424
42	0x3d3dc981	0.046334747
43	0xbbf501b0	-0.007477008
44	0xbc3610a1	-0.011112363
45	0x3d8e0ff8	0.069366395
46	0xbbf6d0ed	-0.00753223
47	0x3d9c0741	0.07618571
48	0x3d34ff7c	0.04418896
49	0x39857a3a	0.00025458803
50	0x3d6cb2a0	0.057787538
51	0xbd4e9f29	-0.050444756
52	0x3d29a3af	0.041415866
53	0xbd3261ad	-0.043550182
54	0xbd21ea3e	-0.03953003
55	0xbd0724a7	-0.03299394
56	0xbc131316	-0.008976718
57	0xbd6b2bf2	-0.057414956
58	0xbd6fd155	-0.058549244
59	0xbd544f78	-0.0518336
60	0x3d38789b	0.045036893
61	0x3cb23349	0.02175297
62	0x3d46b35a	0.048510887
63	0x3d1e1ca9	0.03860155
64	0x3d15f415	0.036609728
65	0x3adb586b	0.0016734725
66	0xbba1f4a9	-0.004942496
67	0x3c23b1c0	0.009991109
68	0x3ab27733	0.0013615846
69	0x3d4cb203	0.049974453
70	0xbc4968de	-0.012293069
71	0xbd5ac569	-0.05341092
72	0x3d583fcc	0.052795216
73	0xbd54465a	-0.051824905
74	0xbbf2ccaf	-0.007409654
75	0xbd5604e6	-0.052250765
76	0x3d98647d	0.074410416
77	0xbcf3fe11	-0.029784234
78	0x3c8083df	0.015687881
79	0x3c2556bf	0.010091483
80	0xbd74a25a	-0.059725143
81	0xbb06f4e1	-0.0020592737
82	0xbabff0b1	-0.0014643875
83	0x3bc1d6f5	0.0059155175
84	0xbd2bf2f4	-0.041979745
85	0xbcf89319	-0.03034358
86	0x3d7560e4	0.059906855
87	0x3d084bc6	0.03327539
88	0xbce89dcd	-0.028395558
89	0xbd0e3355	-0.034716923
90	0xbd6c4f15	-0.057692606
91	0xbd18b4f3	-0.03728194
92	0xbca733e9	-0.020410495
93	0xbb8375b7	-0.0040118354
94	0xbcabc49a	-0.02096777
95	0x3c5d4b56	0.013506731
96	0x3bc42265	0.0059855455
97	0x3ce94315	0.02847437
98	0x3d8030ab	0.06259283
99	0x3d2b4b6d	0.04181998
100	0xbd576ad5	-0.052592117
101	0x3da5cfd0	0.08096278
102	0x3cc2cad1	0.023778351
103	0x3bebaaf5	0.0071920105
104	0xbd1424e8	-0.03616801
105	0x3d4c9be3	0.049953353
106	0xbda18327	-0.078863434
107	0xbcf2ed7f	-0.029654263
108	0x3d2f409e	0.042786233
109	0x3c75d51c	0.0150044225
110	0x3ce8567e	0.028361555
111	0xbc9bcb76	-0.019017916
112	0x3caa4a62	0.020787422
113	0x3d0fb3b3	0.035083484
114	0x3c4f3309	0.012646445
115	0x3d74e828	0.059791714
116	0x3c3c1dea	0.011481741
117	0x3d7a6c02	0.06113816
118	0xbdb0262b	-0.0860103
119	0x3cb0cafc	0.021581165
120	0x3cdd6cee	0.02702948
121	0x3cc7a754	0.02437178
122	0x3d7a8107	0.061158206
123	0x3cad82d8	0.021180555
124	0x3dbfb93d	0.09361503
125	0xba5f10e7	-0.00085092935
126	0x3c353683	0.01106036
127	0x3cecfacc	0.028928183
128	0x3d22140a	0.039569892
129	0xbc2f8669	-0.010713198
130	0xbc14b2c5	-0.009075825
131	0xbd87b7f9	-0.06626887
132	0x3d6d0d5e	0.057874076
133	0x3ab45010	0.0013756771
134	0x3ce4d86b	0.027935227
135	0xbd5a590a	-0.05330757
136	0x3d49efe5	0.049301047
137	0x3c22c45d	0.009934512
138	0xbc6e539d	-0.014546302
139	0xbd62017b	-0.055177193
140	0x3d248e15	0.040174562
141	0x3d2434ae	0.0400893
142	0xbd182a6c	-0.03714983
143	0xbbf7af12	-0.007558712
144	0x3d2d7d58	0.042355865
145	0xbd865990	-0.065600514
146	0xbcf75be0	-0.030195177
147	0x3d257b9e	0.040401094
148	0x3d7ed6a8	0.06221643
149	0xbbcf9d3a	-0.0063358815
150	0x3d83af8f	0.064299695
151	0xbc5e6f24	-0.013576303
152	0xbd4bffe4	-0.049804583
153	0xbd1ba93d	-0.038003195
154	0x3db0f70d	0.08640871
155	0x3d5d34a1	0.05400527
156	0x3ce83413	0.028345143
157	0xbd3949ea	-0.045236506
158	0x3d5b9ed0	0.053618252
159	0xbcf0828a	-0.02935912
160	0x3d3a4688	0.04547742
161	0xbca0c6ef	-0.019626109
162	0xbc27f378	-0.010250919
163	0xbcefa19d	-0.029251868
164	0x3c611281	0.013737322
165	0x3d16d378	0.036822766
166	0x3d9ea938	0.0774712
167	0xbd2b9665	-0.041891474
168	0xbd446f72	-0.047957845
169	0x3d167413	0.03673179
170	0x3d846f74	0.064665705
171	0x3d053d43	0.032529127
172	0x3c7488f2	0.014925228
173	0x3d096a2f	0.03354853
174	0xb77378e3	-1.4512075e-05
175	0xbbfbc80e	-0.0076837605
176	0xbcdc5d9e	-0.026900109
177	0xbd38761f	-0.045034524
178	0xbc3d719e	-0.011562733
179	0x3d50c468	0.050968558
180	0x3d822e74	0.063565165
181	0x3d4a6d59	0.04942069
182	0xbd2cc9ac	-0.042184517
183	0x3d023c82	0.031795986
184	0xbbd8e14d	-0.006618655
185	0xbd80f4b4	-0.062966734
186	0x3ced1490	0.028940469
187	0x3d841ccf	0.06450807
188	0x3dc5da98	0.09660834
189	0xbd54b0e7	-0.05192652
190	0x3d095c2c	0.033535168
191	0x3d7ae37f	0.061252113
192	0x3d5e88c2	0.05432964
193	0xbd002b37	-0.031291213
194	0xbbc934c0	-0.0061403215
195	0x3c4f0b23	0.012636933
196	0xbc3aed3c	-0.0114091
197	0x3d1fcd22	0.03901399
198	0xbd636ff7	-0.0555267
199	0xbd2033e8	-0.039112
200	0xbb8d63c7	-0.004314873
201	0xbd9c2057	-0.07623356
202	0xbd0b5bb7	-0.034023013
203	0xbd255d5e	-0.040372245
204	0xbd256a20	-0.04038441
205	0x3d02d495	0.031941015
206	0xbd1cd758	-0.038291305
207	0x3cb5cf99	0.022193717
208	0x3d8cef75	0.0688161
209	0x3d8934d8	0.06699532
210	0xbcc69ea5	-0.02424557
211	0x3d9c1552	0.07621254
212	0xbc3bcd0b	-0.01146246
213	0xbd58a7fa	-0.05289457
214	0x3cd1da85	0.025616894
215	0x3d2e5a50	0.042566597
216	0x3cf2ed87	0.029654277
217	0x3d68ff24	0.056883946
218	0x3d0e9fa2	0.034820206
219	0xbd80a904	-0.06282237
220	0xbd182b2c	-0.037150547
221	0xbc12aeb8	-0.008952789
222	0x3c9f81f8	0.019471154
223	0xbd3ef490	-0.04661995
224	0xbdaee77c	-0.08540246
225	0x3cef2a93	0.029195106
226	0x3d5a1d9e	0.0532509
227	0x3d81187e	0.063035
228	0xbd4cea24	-0.05002798
229	0x3d25b097	0.040451612
230	0x3d593fc3	0.053039324
231	0x3d3465a1	0.044042233
232	0x3cec6f0f	0.02886155
233	0xbd70a6e4	-0.05875291
234	0xbd26581b	-0.040611368
235	0x3d844fa2	0.06460501
236	0x3d8312f7	0.06400102
237	0x3c27a7bd	0.010232863
238	0x3d354578	0.044255704
239	0xbd38a087	-0.045074966
240	0xb9bc99e4	-0.00035972812
241	0x390f5f0c	0.0001367295
242	0xbd015226	-0.031572483
243	0x3cda03e3	0.026613181
244	0xbd1f18fd	-0.03884219
245	0xbd61f826	-0.055168293
246	0xbd12f504	-0.035878196
247	0xbd088855	-0.03333314
248	0xbbaa5ed1	-0.0051992913
249	0xbd4463eb	-0.04794685
250	0x3d4c31d0	0.049852192
251	0xbd6e974a	-0.05824975
252	0x3c989313	0.018624818
253	0x3d634c6c	0.055492803
254	0xbd21fe9c	-0.039549455
255	0x3d1df084	0.03855945

block3_conv2.bias f4 [64]
0	0xbc8e370f	-0.017360238
1	0x3b01f59f	0.001983024
2	0x3d7de03c	0.061981425
3	0x3d01e4fd	0.03171252
4	0x3d94c1fb	0.07263561
5	0xbce79eba	-0.028273929
6	0xbce6a854	-0.028156437
7	0x3c297506	0.010342842
8	0x3d10eecf	0.035383996
9	0x3d973f13	0.07385077
10	0xbd66539d	-0.056232084
11	0x3b8462aa	0.004040082
12	0xbd20164b	-0.03908376
13	0x3d35fdad	0.044431377
14	0xbd8872b9	-0.066625066
15	0xbbfc3d8e	-0.0076977676
16	0xbd077eba	-0.03307984
17	0x3d821535	0.06351701
18	0x3d23a8e2	0.03995598
19	0xbd2f120a	-0.042741813
20	0xbd4802e3	-0.048830878
21	0x3d85e37b	0.06537529
22	0x3cc8ee63	0.024527734
23	0x3d87e597	0.06635588
24	0xbbf7eb69	-0.007565905
25	0xbd64d395	-0.055865843
26	0x3d67f0df	0.056626197
27	0x3d93f2a0	0.072240114
28	0xbdb017f5	-0.085983194
29	0xbce38c54	-0.027776875
30	0xbd13f709	-0.036124263
31	0x3d814a6f	0.06313025
32	0xbdc2c8a8	-0.095109284
33	0x3bb70650	0.0055854693
34	0xbd9b5a1e	-0.07585548
35	0xbcf1dbe4	-0.029523797
36	0xbc9dabbc	-0.019246928
37	0xbc749006	-0.014926916
38	0xbd15a17b	-0.036530953
39	0xbc1f1c6e	-0.009711368
40	0xbd679fa0	-0.056548715
41	0x3cd480e3	0.025940364
42	0x3d1b4c69	0.037914667
43	0x3d85311d	0.06503508
44	0x3d163c8e	0.036678843
45	0xbd47240a	-0.048618354
46	0x3d5f8a68	0.054575354
47	0x3d36f9e4	0.044671908
48	0x3bf9b140	0.007620007
49	0x3d1a1cad	0.037625004
50	0xbac91fa9	-0.0015344518
51	0x3d6cfa95	0.05785616
52	0x3c105deb	0.008811454
53	0xbd46089b	-0.04834805
54	0xbc303354	-0.010754425
55	0x3cece5ba	0.028918136
56	0xbd0379fb	-0.03209875
57	0x3cb3705d	0.021904165
58	0x3d7e2941	0.06205106
59	0xbc9ed253	-0.0193874
60	0xbd6df83e	-0.05809807
61	0xbd3e02c0	-0.04638934
62	0xbd27759f	-0.040883657
63	0xbbb66513	-0.005566248

block3_bn.weight f4 [64]
0	0x3f7c59d1	0.9857455
1	0x3f86ac79	1.0521384
2	0x3f828f47	1.0199975
3	0x3f795c8d	0.97406846
4	0x3f80fc10	1.0076923
5	0x3f7eda3d	0.99551755
6	0x3f743cc1	0.95405203
7	0x3f803a19	1.001773
8	0x3f7af698	0.9803252
9	0x3f73b046	0.95190847
10	0x3f7fd6e5	0.9993728
11	0x3f7f1411	0.99639994
12	0x3f7750cf	0.9660768
13	0x3f7e72b3	0.9939377
14	0x3f7b76fe	0.9822844
15	0x3f832c88	1.0247965
16	0x3f7c34df	0.98518175
17	0x3f759b2b	0.9593989
18	0x3f780429	0.9688135
19	0x3f7da005	0.99072295
20	0x3f839f0c	1.0282912
21	0x3f7e1dd6	0.99264276
22	0x3f838e0b	1.0277723
23	0x3f791c05	0.9730838
24	0x3f7b5aa5	0.9818519
25	0x3f7aec51	0.9801684
26	0x3f7c27a8	0.9849801
27	0x3f77155e	0.9651698
28	0x3f7c7f30	0.9863157
29	0x3f8118e5	1.0085722
30	0x3f80441c	1.0020785
31	0x3f85db15	1.0457484
32	0x3f852f57	1.0405072
33	0x3f752b88	0.9576955
34	0x3f806bc1	1.0032884
35	0x3f7cdf93	0.9877865
36	0x3f7940f2	0.97364724
37	0x3f81418c	1.0098128
38	0x3f858a26	1.0432785
39	0x3f84cb36	1.0374515
40	0x3f7c67c9	0.98595864
41	0x3f801e52	1.0009253
42	0x3f7d2d9f	0.9889774
43	0x3f78c25b	0.9717156
44	0x3f7ff418	0.9998183
45	0x3f8126e7	1.0089997
46	0x3f815d10	1.0106525
47	0x3f791c81	0.9730912
48	0x3f7a1dc9	0.977017
49	0x3f87d89a	1.0612977
50	0x3f725f88	0.9467702
51	0x3f7f1409	0.99639946
52	0x3f7bfe5c	0.98434997
53	0x3f7b01f0	0.9804983
54	0x3f8010fe	1.0005186
55	0x3f7ccebd	0.9875296
56	0x3f839158	1.027873
57	0x3f799dbf	0.97506326
58	0x3f7f5d15	0.99751407
59	0x3f811fa9	1.0087787
60	0x3f7dc7cf	0.9913301
61	0x3f7c2d6a	0.98506796
62	0x3f7cd341	0.9875985
63	0x3f7b801e	0.98242366

block3_bn.bias f4 [64]
0	0x3bc1a7d1	0.005909898
1	0x3cf9d537	0.030497177
2	0x3b405b5f	0.0029351336
3	0x3d326bb3	0.04355974
4	0x3d5b99a1	0.05361331
5	0x3a32201f	0.00067949475
6	0xbcea01e1	-0.028565349
7	0x3cbd226a	0.023087699
8	0xbd70bb97	-0.05877265
9	0x3c9e59ef	0.019329993
10	0x3b90bed3	0.0044172793
11	0xbd361a83	-0.044458877
12	0x3a38ef27	0.00070546794
13	0x3cc0e261	0.023545446
14	0xbc2873c7	-0.01028151
15	0x3d354698	0.044256777
16	0xbd454165	-0.04815807
17	0x3d53fa6a	0.051752485
18	0xbd4eff70	-0.050536573
19	0xbd579996	-0.052636705
20	0x3c9eb9dd	0.019375736
21	0xbc29b877	-0.010358921
22	0xbc097ead	-0.008392018
23	0xbc51c139	-0.0128024155
24	0xbcfaec9f	-0.030630408
25	0x3d32b388	0.043628246
26	0xbca54126	-0.020172667
27	0x3d090f66	0.03346195
28	0x3cfa5c20	0.030561507
29	0x3d698ea8	0.057020813
30	0x3b8f9475	0.004381711
31	0x3cf154ea	0.029459435
32	0xbcedbea4	-0.029021569
33	0xbd3ba68d	-0.045813132
34	0x3d3e996e	0.04653304
35	0xbd3c8091	-0.046021048
36	0xbd0b1716	-0.033957563
37	0xbd00f6ed	-0.031485487
38	0xbc7413f8	-0.014897339
39	0xbcc06266	-0.02348442
40	0x3c6b7745	0.014371698
41	0x3bf032ea	0.007330288
42	0xbd81fc69	-0.063469715
43	0x3aeccd62	0.001806658
44	0xbd826de1	-0.06368614
45	0x3d00a49e	0.03140699
46	0x3d583b71	0.052791063
47	0xbb1766c0	-0.0023102015
48	0x3ca8a0f2	0.020584557
49	0x3aa3210f	0.0012445765
50	0xbc155636	-0.009114793
51	0x3c42c3c9	0.011887499
52	0xbc6d88bc	-0.014497932
53	0xbc507e6d	-0.012725455
54	0xbd33d6f9	-0.043906186
55	0xbc726d40	-0.014796555
56	0xbba11e9e	-0.00491698
57	0xbcc5204c	-0.024063252
58	0xbd604eaa	-0.05476252
59	0xbd01beb2	-0.031676
60	0xbc9a9420	-0.01886946
61	0xbd59f3c7	-0.053211
62	0x3c71991f	0.01474598
63	0x3d0e7a0b	0.034784358
